models/score_model.pth (torch, 205232 bytes, 10 tensors)

layers.layer_0.weight f4 [128, 3]
-0.46844906 -0.2017926 -0.31841406 -0.40530697 0.2688729 -0.20640408 0.13980865 -0.6381186
0.4970711 -0.11890955 -0.59414697 0.73626417 0.6347029 -0.42140323 0.5533395 0.4625187
-0.4633544 -0.42565015 -0.37336028 0.35623342 -0.7038728 0.015890932 0.21396917 -0.757506
-0.08929402 0.42495474 0.08776223 0.59491473 -0.26564145 -0.014612692 0.28703785 -0.036454353
0.4448206 0.6054829 0.24630031 -0.13672304 -0.48326182 0.23050645 0.58024555 0.40950045
-0.6094342 -0.40702716 -0.041584786 -0.080184504 -0.5490549 0.41840842 0.40503508 0.21748573
0.0658383 -0.24487543 0.28195965 -0.4604729 -0.1889099 -0.5624214 0.39888176 0.21053557
-0.25203228 0.4828056 0.48092264 0.67632 -0.43669632 -0.61132175 0.21182495 0.41887128
-0.22126244 -0.6121808 0.27318275 -0.37308288 -0.2522808 -0.5633523 -0.0092786355 0.41311708
0.43041724 -0.4425872 0.48966414 -0.13211365 -0.39126834 0.29242373 0.25359294 -0.42195538
0.5552006 -0.3796577 0.37341088 0.07376573 0.5588888 0.25482792 0.56227833 -0.1752624
0.01383449 -0.3614925 0.27718493 0.25632107 -0.7661486 -0.34139577 -0.18168789 0.2412992
-0.10210815 -0.018399006 -0.019115884 0.39274287 -0.105883725 -0.39838195 0.20923397 -0.512031
-0.048502263 -0.60458624 -0.48672175 -0.39179313 -0.5845542 0.25000978 0.045084666 -0.4366454
-0.001966809 0.6797704 0.5579011 0.362954 -0.60462713 -0.39104256 0.13148123 0.72887665
-0.15630807 -0.4465822 -0.3447656 -0.10755887 -0.3448354 0.16030072 -0.7383807 -0.011107284
-0.06450795 0.4316617 -0.52517796 -0.02116632 -0.0065499656 0.19437991 -0.31368297 -0.4433236
0.36010456 0.057410203 0.31743407 -0.35933998 0.06929483 -0.3408727 -0.0647556 -0.6361602
0.017869692 0.37731776 0.41721308 0.14843789 -0.14506844 -0.34825084 -0.5055806 -0.0271029
0.65932435 0.19120789 -0.48002493 0.28295517 -0.44398564 0.32990727 0.15508735 0.49966317
0.21200086 0.5157542 -0.26863635 0.51247716 0.1974758 -0.47482628 -0.019025112 -0.12091476
0.58079255 0.68441004 -0.5296199 -0.20005599 0.39696908 -0.3690906 -0.3066221 0.30392182
-0.14360717 0.5424349 -0.48793137 0.35748965 0.6647081 0.27352434 0.5025944 -0.69456804
-0.4096673 -0.48594052 -0.6046352 0.3345872 -0.3020802 -0.16712548 -0.18486968 -0.60127807
-0.48988187 -0.5782965 0.5373451 -0.122693114 0.33157536 -0.28241628 0.21228564 -0.40913877
-0.0048368094 0.2237464 0.04293058 -0.5322788 0.29103434 0.27290037 -0.72020954 0.6091654
0.2622008 -0.23565063 -0.4930647 -0.32662398 -0.2994322 -0.14440529 0.4177648 0.40233755
-0.37536222 -0.37371212 -0.3439836 0.5664403 0.03436374 0.57125 0.008262448 0.35212737
0.38820457 0.63224286 0.56145275 -0.45947835 0.54528326 0.5046522 -0.6954416 -0.0029898714
0.0014435439 0.75314534 0.43874645 -0.45326066 -0.53027135 -0.22337428 -0.5115995 -0.3416083
-0.42195252 -0.52873003 0.30868235 -0.2144426 -0.51268333 -0.76698184 0.103212595 0.2715796
-0.70341414 0.6056528 -0.4171027 0.53496 -0.48984337 0.68270355 0.32879913 0.20678443
00000000: 8ed8 efbe b8a2 4ebe 2b07 a3be 6584 cfbe
00000010: b5a9 893e 975b 53be 002a 0f3e be5b 23bf
00000020: 1a80 fe3e da86 f3bd 041a 18bf cf7b 3c3f
00000030: e47b 223f 2ac2 d7be a8a7 0d3f 40cf ec3e
00000040: ca3c edbe d1ee d9be 1429 bfbe 3a64 b63e
00000050: 0231 34bf b32d 823c bc1a 5b3e eaeb 41bf
00000060: c8df b6bd ab93 d93e afbc b33d 554c 183f
00000070: 2802 88be 136a 6fbc a0f6 923e 2951 15bd
00000080: 87bf e33e ed00 1b3f 2636 7c3e 2001 0cbe
00000090: 186e f7be e209 6c3e f98a 143f 0baa d13e
000000a0: e103 1cbf dd65 d0be cf54 2abd c637 a4bd
000000b0: dd8e 0cbf a139 d63e c260 cf3e 94b4 5e3e
000000c0: 3bd6 863d a0c0 7abe 045d 903e 1bc3 ebbe
000000d0: 9971 41be d9fa 0fbf 3b3a cc3e a396 573e
000000e0: 600a 81be 4c32 f73e 7e3b f63e 4f23 2d3f
000000f0: a996 dfbe 957f 1cbf a4e8 583e 4c76 d63e
00000100: 9f92 62be e2b7 1cbf 9cde 8b3e b804 bfbe
00000110: f32a 81be db37 10bf 6b05 18bc 1584 d33e
00000120: a65f dc3e ca9a e2be 42b5 fa3e cd48 07be
00000130: 5354 c8be 90b8 953e efd6 813e 890a d8be
00000140: a021 0e3f 7e62 c2be b62f bf3e 7d12 973d
00000150: 5613 0f3f ce78 823e 79f1 0f3f fd77 33be
00000160: 0faa 623c 8c15 b9be 2feb 8d3e 843c 833e
00000170: 5122 44bf 6dcb aebe 640c 3abe 2317 773e
00000180: 141e d1bd 83b9 96bc ea98 9cbc 9815 c93e
00000190: 91d9 d8bd b8f8 cbbe 6e41 563e 7714 03bf
000001a0: 4faa 46bd 2ac6 1abf 9833 f9be 1c99 c8be
000001b0: 58a5 15bf 4801 803e b3aa 383d fc8f dfbe
000001c0: 94e5 00bb 6f05 2e3f 9bd2 0e3f 1bd5 b93e
000001d0: d8c8 1abf bb36 c8be 04a3 063e a997 3a3f
000001e0: 390f 20be 6ca6 e4be 1e85 b0be d347 dcbd
000001f0: 448e b0be df25 243e 8406 3dbf 53fb 35bc
00000200: be1c 84bd c302 dd3e 1072 06bf fe64 adbc
00000210: 18a1 d6bb 870b 473e 0e9b a0be 50fb e2be
00000220: a05f b83e f626 6b3d b886 a23e 69fb b7be
00000230: 73ea 8d3d de86 aebe 969e 84bd 65db 22bf
00000240: 7663 923c cb2f c13e f49c d53e 1a00 183e
00000250: d28c 14be ef4d b2be bb6d 01bf e706 debc
00000260: 7bc9 283f 00cc 433e d4c5 f5be 80df 903e
00000270: 1652 e3be 9be9 a83e 38cf 1e3e dad3 ff3e
00000280: c116 593e 7808 043f b48a 89be b431 033f
00000290: 1937 4a3e 6e1c f3be 8dda 9bbc 28a2 f7bd
000002a0: d2ae 143f 7f35 2f3f 2b95 07bf 7adb 4cbe
000002b0: 883f cb3e 71f9 bcbe 92fd 9cbe a49b 9b3e
000002c0: c20d 13be 03dd 0a3f 24d2 f9be e208 b73e
000002d0: 4f2a 2a3f 620b 8c3e 07aa 003f 36cf 31bf
000002e0: eabf d1be 32cd f8be 5fc9 1abf 034f ab3e
000002f0: 42aa 9abe f122 2bbe 7a4e 3dbe 5ced 19bf
00000300: ccd1 fabe 3d0b 14bf 738f 093f 8746 fbbd
00000310: 3fc4 a93e de98 90be 6861 593e a37a d1be
00000320: 197e 9ebb c71d 653e fad7 2f3d 6c43 08bf
00000330: 7402 953e 99b9 8b3e a75f 38bf 43f2 1b3f
00000340: 2f3f 863e 664e 71be fa72 fcbe 423b a7be
00000350: 2d4f 99be fbde 13be 45e5 d53e 30ff cd3e
00000360: 7a2f c0be 3257 bfbe 9e1e b0be 3b02 113f
00000370: fec0 0c3d 713d 123f 385f 073c 0a4a b43e
00000380: c0c2 c63e abda 213f 5ebb 0f3f bf40 ebbe
00000390: af97 0b3f e330 013f 7608 32bf b8f1 43bb
000003a0: 4c35 bd3a 22ce 403f 60a3 e03e c811 e8be
000003b0: ddbf 07bf 3abc 64be 2ff8 02bf 48e7 aebe
000003c0: 290a d8be da5a 07bf 9d0b 9e3e d796 5bbe
000003d0: 373f 03bf ec58 44bf 2061 d33d 7b0c 8b3e
000003e0: f312 34bf 100c 1b3f 7c8e d5be 23f3 083f
000003f0: c0cc fabe a9c5 2e3f 5c58 a83e 4cbf 533e

layers.layer_0.bias f4 [128]
0.23932448 0.5101727 -0.09890937 -0.29249042 0.18665026 -0.3609479 -0.29996648 -0.10160109
0.15267766 0.0945583 -0.3381892 0.17171904 0.5169925 -0.012524096 0.264898 0.590859
0.47855937 -0.40732974 0.56179154 0.030959593 -0.33057243 0.5322721 0.5383629 0.0286328
0.6538445 0.03647065 0.5101381 0.0457104 0.4681866 -0.08862508 -0.22026347 0.40006903
-0.39336422 -0.084745966 -0.09839723 0.41397893 0.11912379 -0.2846348 -0.19658805 -0.12623744
-0.06689866 -0.38753083 0.068000205 -0.3000094 0.22024748 0.25138217 0.5232944 0.4358241
0.51139545 -0.12760887 -0.30801457 0.07562281 0.09091346 -0.16368392 0.18620802 -0.25429988
0.046086766 0.14989793 -0.23076528 -0.13363773 -0.19782552 0.27609769 0.23016131 -0.108921796
0.268666 -0.29233855 0.47105095 0.25493374 0.46171337 0.1436048 0.04397898 0.56029373
-0.29213598 0.2463214 -0.22905011 -0.47162786 -0.44301504 -0.056111723 -0.386689 -0.09203981
0.121917464 0.18449946 0.38916233 0.2338505 0.00028430665 0.18043661 -0.35009575 0.25804672
0.4390116 -0.13511375 -0.22099285 -0.107841626 -0.48266563 -0.17300461 0.516784 -0.22455294
-0.37278435 0.06311394 -0.040842015 0.45315427 0.075851925 0.17616239 -0.39792335 -0.32968822
0.4153274 0.39409843 0.043462608 -0.54454815 0.51519084 0.27863634 0.31040007 -0.3564367
-0.45347932 0.27577424 0.55892885 0.60654014 -0.24009705 0.5132555 -0.3681516 -0.17481656
0.53110313 -0.41198632 0.09867364 -0.19676702 0.57082665 0.30210173 -0.11078767 -0.24611384
00000000: 7a11 753e ae9a 023f ff90 cabd 4ec1 95be
00000010: 3f21 3f3e 2ace b8be 3595 99be 3b14 d0bd
00000020: 8857 1c3e c8a7 c13d 2327 adbe 1ed7 2f3e
00000030: 9f59 043f de31 4dbc b6a0 873e 8942 173f
00000040: bc05 f53e 868d d0be 92d1 0f3f f99e fd3c
00000050: ca40 a9be fc42 083f 27d2 093f 558f ea3c
00000060: 5a62 273f 4062 153d 6998 023f d43a 3b3d
00000070: 27b6 ef3e 1181 b5bd bf8c 61be d9d5 cc3e
00000080: 0967 c9be 4b8f adbd 7d84 c9bd 0cf5 d33e
00000090: 2cf7 f33d a7bb 91be 614e 49be 6344 01be
000000a0: 2a02 89bd 716a c6be b143 8b3d d59a 99be
000000b0: 8e88 613e 2ab5 803e 9ff6 053f 5624 df3e
000000c0: d0ea 023f e6ab 02be 16b4 9dbe 22e0 9a3d
000000d0: d630 ba3d c29c 27be 51ad 3e3e 9833 82be
000000e0: 7ac5 3c3d d87e 193e bc4d 6cbe 54d8 08be
000000f0: c692 4abe ad5c 8d3e 68af 6b3e 6412 dfbd
00000100: 978e 893e 66ad 95be 972d f13e ad86 823e
00000110: b265 ec3e 230d 133e 4e23 343d 696f 0f3f
00000120: d992 95be ad3b 7c3e 1d8c 6abe 3579 f1be
00000130: ded2 e2be 68d5 65bd 1afc c5be 5e7f bcbd
00000140: ddaf f93d 6ded 3c3e 4940 c73e 8176 6f3e
00000150: fe0e 9539 60c4 383e c03f b3be b31e 843e
00000160: 21c6 e03e 425b 0abe f34b 62be 12dc dcbd
00000170: f31f f7be 1f28 31be f54b 043f 35f1 65be
00000180: 97dd bebe e241 813d f549 27bd d603 e83e
00000190: 4158 9b3d ea63 343e 9cbc cbbe e5cc a8be
000001a0: cba5 d43e 45c7 c93e d905 323d 8267 0bbf
000001b0: 8ce3 033f 6ca9 8e3e c2ec 9e3e df7e b6be
000001c0: 712e e8be 4832 8d3e f615 0f3f 3746 1b3f
000001d0: 00dc 75be b664 033f 5e7e bcbe 1d03 33be
000001e0: 60f6 073f dfef d2be 6815 ca3d 4b7d 49be
000001f0: b221 123f 14ad 9a3e a5e4 e2bd 4405 7cbe

layers.layer_1.weight f4 [128, 128]
0.012726198 0.08509933 0.0128064295 0.031178577 -0.06082544 0.018571697 0.008211261 0.10642335
0.04778997 0.067016035 -0.11392556 0.16157085 -0.07940366 0.11073826 0.08733386 0.004739026
0.044624586 0.18226124 -0.022601478 -0.17047614 0.04499057 -0.00514797 0.029883115 -0.052057922
-0.034479395 0.0032856786 0.07185552 -0.056869853 -0.044430036 0.24633253 -0.023466984 0.016825015
-0.0747541 0.21426322 0.025556313 -0.06164906 -0.09346419 0.10713948 0.3292275 -0.04531836
0.06215756 -0.030142503 0.024948861 -0.034806114 0.03055646 -0.049509536 0.09915046 0.076666005
0.026805712 0.0122962305 -0.04240897 0.002382392 -0.049539085 -0.43953067 0.07455129 0.034657985
-0.05999241 0.09377646 0.0058200876 -0.042597838 -0.45064855 -0.004742328 -0.03944841 0.17845571
0.06299315 -0.015050016 0.012397436 -0.02084877 0.056577582 0.20796058 0.0034145678 -0.012718668
0.023400165 -0.048886966 -0.11200469 0.0020061713 0.03887973 -0.009266967 0.05821998 -0.058382973
0.03402593 -0.065443605 0.03137918 -0.00032780718 -0.03100115 0.30219808 0.009283767 -0.03652364
0.023874447 0.060811866 0.0983948 0.21871826 -0.08330085 -0.09253067 0.0103749065 -0.073090136
0.04332289 0.004935345 -0.11118606 0.06799331 -0.045340203 -0.08077884 -0.26211852 0.0035052947
0.04992216 -0.04764266 0.04123398 0.048934303 0.056455784 -0.022287166 -0.028410899 0.05277033
-0.39977926 -0.041224264 -0.036041915 -0.075372115 0.10972388 0.029676786 -0.07419148 -0.047317907
0.11507958 0.012389899 0.037216704 0.0029537568 0.031695053 -0.08910743 0.016750438 0.12119794
-0.051171653 0.039869197 0.02438235 0.052365668 -0.018777044 -0.04948891 -0.022698503 0.19613262
-0.03634173 -0.02290545 0.06961041 0.07020208 -0.07332075 -0.050026428 0.011722285 0.03330744
0.069340535 0.101376094 -0.005345534 0.045564022 -0.0529338 0.118596375 -0.04531294 -0.02357904
0.097209334 0.091807835 0.09150834 -0.022704313 -0.04081086 0.14773111 0.10019531 -0.019821502
0.027273571 -0.025836835 0.03549832 -0.014410832 0.061292034 0.062480077 0.043183953 0.07637665
-0.039100647 -0.03382638 -0.05141811 -0.053937435 0.09220793 0.01655789 -0.00019058555 0.08479151
-0.038112666 -0.03621393 0.053587705 -0.0049196244 0.07858125 -0.07843498 -0.0041213436 0.10166889
0.026456954 0.07852932 0.016525064 0.022163954 0.010927371 0.024644088 -0.036638334 0.12817557
0.082316324 -0.013455956 -0.043415595 -0.022238957 0.06727707 0.083520584 -0.037024587 0.10674866
0.09409676 0.058288746 0.033060383 0.08192172 0.050677083 -0.033619933 -0.040575247 0.08893678
-0.00836993 -0.033893712 0.084129445 0.071344845 -0.07160047 0.09779323 -0.0059622605 0.07335568
0.084848784 -0.053934745 -0.0057915556 0.21823609 0.0023743056 0.017366223 0.053565886 0.01677525
-0.02243731 -0.032989755 -0.03708927 -0.04913984 -0.061983064 0.00054083805 -0.050742693 0.09047119
-0.062069032 0.020802522 -0.051216528 -0.06542514 0.06530341 0.055673413 0.11575667 0.007848424
-0.05902218 0.014041447 0.0032696123 0.03481916 -0.033510886 -0.038807474 -0.020297099 0.12722573
-0.023777487 0.056582157 0.034058522 0.09564082 -0.048480984 0.03369973 -0.085408874 -0.042468958
00000000: 8b81 503c 8f48 ae3d 0fd2 513c 376a ff3c
00000010: 1924 79bd ac23 983c 8688 063c 7cf4 d93d
00000020: 6abf 433d b43f 893d ce51 e9bd d472 253e
00000030: 639e a2bd beca e23d 18dc b23d d549 9b3b
00000040: 45c8 363d b1a2 3a3e bc26 b9bc 4c91 2ebe
00000050: 0848 383d 4db0 a8bb 6fcd f43c b03a 55bd
00000060: 443a 0dbd 8a54 573b fd28 933d 5df0 68bd
00000070: 45fc 35bd 983e 7c3e d53d c0bc 9dd4 893c
00000080: ad18 99bd d167 5b3e 795b d13c ba83 7cbd
00000090: 276a bfbd f26b db3d 8290 a83e bf9f 39bd
000000a0: ed98 7e3d 69ed f6bc 8e61 cc3c db90 0ebd
000000b0: 8b51 fa3c 83ca 4abd 650f cb3d 1103 9d3d
000000c0: a797 db3c 2176 493c 07b5 2dbd e821 1c3b
000000d0: 7fe9 4abd 2a0a e1be 59ae 983d 88f5 0d3d
000000e0: 9aba 75bd df0d c03d 6fb6 be3b 127b 2ebd
000000f0: 68bb e6be 8865 9bbb a894 21bd 18bd 363e
00000100: 8d02 813d 5894 76bc 9e1e 4b3c 0acb aabc
00000110: e5bd 673d 9ef3 543e f1c6 5f3b f661 50bc
00000120: b4b1 bf3c b33d 48bd b762 e5bd f879 033b
00000130: 5a40 1f3d 7ad4 17bc 1378 6e3d fc22 6fbd
00000140: c65e 0b3d 4c07 86bd 7487 003d 89dd abb9
00000150: 20f6 fdbc b5b9 9a3e f11a 183c d099 15bd
00000160: 5894 c33c dd15 793d 3783 c93d aef7 5f3e
00000170: a399 aabd b880 bdbd 83fb 293c 48b0 95bd
00000180: 5873 313d adb8 a13b 84b5 e3bd 1440 8b3d
00000190: a6b6 39bd 606f a5bd 6634 86be 16b9 653b
000001a0: 2e7b 4c3d f324 43bd f6e4 283d 566f 483d
000001b0: 2e3e 673d 9393 b6bc f9bd e8bc b425 583d
000001c0: deaf ccbe c6da 28bd b0a0 13bd b25c 9abd
000001d0: eab6 e03d bb1c f33c b4f1 97bd 6cd0 41bd
000001e0: d8ae eb3d 01ff 4a3c 8b70 183d d193 413b
000001f0: acd2 013d f57d b6bd 3738 893c a036 f83d
00000200: 5e99 51bd e24d 233d 7ebd c73c 627d 563d
00000210: 51d2 99bc e2b4 4abd 36f2 b9bc fdd6 483e
00000220: 11db 14bd 36a4 bbbc e78f 8e3d 1cc6 8f3d
00000230: 3029 96bd 83e8 4cbd d40e 403c 626d 083d
00000240: 6902 8e3d 459e cf3d 9729 afbb 57a1 3a3d
00000250: 1dd1 58bd a8e2 f23d 109a 39bd d528 c1bc
00000260: b015 c73d bf05 bc3d b968 bb3d 65fe b9bc
00000270: 4a29 27bd d346 173e 3333 cd3d b460 a2bc
00000280: d36c df3c c5a7 d3bc b066 113d 691b 6cbc
00000290: 5b0d 7b3d 1ceb 7f3d a8e1 303d 5c6b 9c3d
000002a0: 0028 20bd 888d 0abd cc9b 52bd 80ed 5cbd
000002b0: 83d7 bc3d 6aa4 873c ebd7 47b9 2ca7 ad3d
000002c0: 071c 1cbd 0f55 14bd c87e 5b3d cd34 a1bb
000002d0: 35ef a03d 85a2 a0bd 560c 87bb c737 d03d
000002e0: 41bc d83c fbd3 a03d 925f 873c 2e91 b53c
000002f0: b708 333c 66e2 c93c 1412 16bd 7540 033e
00000300: 7695 a83d 5f76 5cbc 8dd4 31bd 792e b6bc
00000310: 8fc8 893d d70c ab3d 18a7 17bd 0b9f da3d
00000320: cdb5 c03d 2ec0 6e3d 536a 073d 93c6 a73d
00000330: c692 4f3d 0eb5 09bd 3b32 26bd 7d24 b63d
00000340: 0822 09bc 22d4 0abd 0f4c ac3d 3f1d 923d
00000350: 44a3 92bd d147 c83d 115f c3bb 813b 963d
00000360: 33c5 ad3d aeea 5cbd 17c7 bdbb 4879 5f3e
00000370: 3d9a 1b3b 9c43 8e3c e767 5b3d 406c 893c
00000380: 73ce b7bc 4420 07bd ebea 17bd db46 49bd
00000390: f4e1 7dbd 07c7 0d3a 92d7 4fbd f648 b93d
000003a0: 193c 7ebd 0d6a aa3c 6cc8 51bd 9efd 85bd
000003b0: cbbd 853d ce09 643d d511 ed3d ad96 003c
000003c0: 3ec1 71bd 190e 663c fe46 563b 899e 0e3d
000003d0: b642 09bd 96f4 1ebd 1a46 a6bc 7647 023e
000003e0: 01c9 c2bc b1c2 673d f380 0b3d 56df c33d
000003f0: ff93 46bd ba08 0a3d d9ea aebd eef3 2dbd

layers.layer_1.bias f4 [128]
0.062133312 0.10047333 -0.039825868 0.058134437 -0.04345106 -0.033111602 -0.03375486 -0.08035944
0.06865665 0.0014041198 -0.050948057 0.09362897 -0.017069878 -0.05506594 0.059452433 -0.0017592943
0.02853802 -0.0073146964 -0.053792205 -0.06904088 0.08656349 0.09454096 0.016946023 -0.12932484
-0.09050875 -0.086599246 0.051975984 0.006322474 -0.02736361 -0.00129204 0.031176731 -0.013153154
0.07138151 0.106391 -0.048363425 -0.02340646 0.053420097 -0.020245913 0.0017046592 -0.009805712
0.011289196 -0.019757051 0.018632835 0.06659801 0.069874406 0.0122072 -0.015668813 -0.011235232
0.04687726 0.071941055 -0.06221741 0.012077797 0.03293233 -0.04030874 -0.034560118 -0.034971282
-0.03847464 -0.046553493 -0.015640235 -0.022049118 -0.0075463424 0.04309239 -0.03759767 0.06151164
0.007616564 0.09142587 0.03182418 0.07146746 0.05536089 0.098390564 0.100572295 -0.011158468
-0.02144425 0.05897545 0.018042525 -0.020190816 0.05071411 0.06219633 0.0906195 0.01271037
0.103090785 0.050798144 0.0010263855 -0.0011226445 0.016806275 0.038284514 -0.028920108 0.022848958
0.03817104 0.08872707 0.0018688735 -0.0065958886 -0.06644623 0.0019427864 -0.048122942 -0.05068365
0.1270447 -0.021431835 0.050982997 -0.021887079 -0.06365557 0.01658122 0.038739316 0.07850839
0.06348957 -0.020207576 0.074765526 -0.043802578 0.08006149 0.0028770692 0.018759547 0.096018255
-0.024558458 0.04370696 0.078988194 0.0120922625 0.003892642 -0.05396443 -0.033070236 -0.0655466
0.062512405 -0.033110246 0.01072504 0.038648076 0.102655865 -0.0057290317 -0.042100664 0.017825395
00000000: 807f 7e3d f6c4 cd3d 7320 23bd 601e 6e3d
00000010: bdf9 31bd 08a0 07bd 8942 0abd 7d93 a4bd
00000020: dc9b 8c3d 710a b83a e9ae 50bd 8cc0 bf3d
00000030: 21d6 8bbc d38c 61bd 6584 733d 1f98 e6ba
00000040: 91c8 e93c 1fb0 efbb 3755 5cbd 4e65 8dbd
00000050: 3348 b13d b19e c13d 63d2 8a3c bb6d 04be
00000060: a75c b9bd f25a b1bd c5e4 543d c22c cf3b
00000070: a629 e0bc ab59 a9ba 5866 ff3c 5480 57bc
00000080: 7830 923d 86e3 d93d ba18 46bd e8be bfbc
00000090: 08cf 5a3d c2da a5bc df6e df3a 23a8 20bc
000000a0: 52f6 383c 8ad9 a1bc e3a3 983c 8a64 883d
000000b0: 501a 8f3d b500 483c e25b 80bc fb13 38bc
000000c0: 5f02 403d d555 933d afd7 7ebd f4e1 453c
000000d0: 0de4 063d c71a 25bd e98e 0dbd 0c3e 0fbd
000000e0: 9697 1dbd e0ae 3ebd f31f 80bc 5aa0 b4bc
000000f0: 4f47 f7bb a581 303d 0400 1abd a1f3 7b3d
00000100: 5f94 f93b 7d3d bb3d 125a 023d 885d 923d
00000110: 1ac2 623d fe80 c93d d9f8 cd3d 02d2 36bc
00000120: daab afbc 3e90 713d ebcd 933c 3667 a5bc
00000130: 99b9 4f3d 94c1 7e3d b796 b93d 283f 503c
00000140: 4321 d33d b711 503d c887 863a b325 93ba
00000150: 50ad 893c 39d0 1c3d dde9 ecbc bd2d bb3c
00000160: 3d59 1c3d 8ab6 b53d fdf4 f43a 5322 d8bb
00000170: f614 88bd 18a5 fe3a 901c 45bd a999 4fbd
00000180: 0118 023e d191 afbc 8cd3 503d 884c b3bc
00000190: da5d 82bd 57d5 873c 1ead 1e3d 02c9 a03d
000001a0: d206 823d 5c8a a5bc ab1e 993d 556a 33bd
000001b0: 47f7 a33d 368d 3c3b 9fad 993c 38a5 c43d
000001c0: d22e c9bc 1206 333d 90c4 a13d a01e 463c
000001d0: b21b 7f3b ce09 5dbd a874 07bd 4c3d 86bd
000001e0: 8106 803d 9c9e 07bd 14b8 2f3c 724d 1e3d
000001f0: 3d3d d23d 9aba bbbb bf71 2cbd 9006 923c

layers.layer_2.weight f4 [128, 128]
-0.277088 -0.0298003 0.012101248 -0.050999034 -0.06442478 0.10901959 -0.03242674 0.11570823
0.018036513 0.11543172 0.057686307 0.029810455 -0.06510911 -0.09712799 -0.049768593 -0.24255495
-0.041602958 0.16013044 -0.27884865 -0.027244503 -0.035657562 0.07538746 0.08499188 -0.13135964
0.062498312 -0.09905639 -0.03708974 -0.0729267 0.12968083 -0.06209945 -0.040551454 -0.041710038
-0.0621127 -0.45270053 -0.042731386 0.070661575 0.04452901 0.04504021 0.022431709 0.090176195
-0.036913916 0.011609925 0.075282514 -0.03072476 0.079724945 0.047302857 -0.14874879 0.038891677
0.058651432 0.08132625 -0.10362143 0.055408023 0.02479119 0.03907971 0.03670754 0.050789
-0.067839295 0.78115404 -0.036500193 -0.062388647 -0.053902205 -0.028192509 -0.37286785 0.07893963
-0.022922361 0.11025392 0.69947565 -0.040163554 0.0785642 0.07101802 -0.0958507 -0.20603782
-0.014665792 0.09969979 0.05155788 -0.0004164724 -0.08717604 0.08325739 0.3910873 0.013448673
0.057707634 0.10615344 -0.036375843 0.042780843 0.0120726675 0.0046601193 -0.061904524 0.06502792
-0.065036304 0.04604727 0.05062199 -0.002837361 0.010550132 0.023135606 0.0044764197 -0.0022184318
0.0050703296 -0.035517864 0.011563367 0.10954842 -0.05501779 0.008069155 0.011227233 0.103166334
0.07234437 0.08305039 -0.025810773 0.031304162 0.048146926 -0.026356727 0.014370891 -0.0013970064
-0.029059203 -0.15863605 0.10440614 -0.07569394 -0.015540255 0.060609188 0.09505634 -0.039699607
-0.12441233 -0.005342483 -0.019676592 -0.019961298 -0.0019548824 0.0047553643 0.07547838 -0.04348396
-0.15749857 -0.030380338 0.06653322 0.060553275 -0.05299119 0.06793669 0.07375572 -0.06570845
-0.07018802 -0.0021815717 -0.052052937 -0.0050492245 -0.012612183 -0.008786623 0.03377734 -0.019397052
0.07869464 0.1050065 -0.19720227 0.06150009 0.028586438 0.35507533 0.072235025 0.07489696
0.19118984 -0.03811126 0.033726513 0.055416804 0.09997013 0.009381437 0.042834036 -0.44619796
-0.047290333 -0.25995404 -0.035872057 -0.013490907 0.041135803 -0.0035626462 0.005716344 -0.04951401
-0.0955698 0.06327257 -0.07003666 -0.03568381 0.012944397 -0.064698786 0.041481227 -0.06644794
-0.030518463 0.066189446 0.015390651 0.046386804 -0.031527616 0.12564206 -0.11340403 -0.22633173
-0.09623444 0.67318815 -0.034151442 0.050769586 0.063689195 -0.06419864 -0.70882946 0.06622903
0.117930315 -0.011457989 0.8547072 0.05848424 0.072048716 -0.036829002 -0.0068166633 -0.5626935
-0.06686934 0.00972459 0.048439518 -0.03587788 -0.08156945 0.010395257 0.22786655 0.08771809
-0.033087656 -0.2014959 -0.023828374 -0.052676942 0.15348679 0.09462067 0.002938138 -0.026286218
0.06170943 -0.0077207466 0.0062719984 0.061375014 -0.061062735 0.02195756 -0.062721565 -0.01921023
0.05969375 0.06596726 0.09210365 0.066770956 -0.029655237 0.121696465 -0.04233406 -0.1141678
0.092423335 0.04286091 -0.063824266 0.02868761 -0.06053177 0.024658449 -0.052083034 -0.04901157
0.10018804 -0.17339922 0.1624953 0.01560037 -0.049141027 0.053047884 -0.06470704 -0.04884838
-0.092223495 -0.056196384 -0.029177384 0.04406172 -0.04062567 0.0058738096 0.02693685 -0.036252286
00000000: 7ade 8dbe c21f f4bc 5044 463c 5de4 50bd
00000010: 24f1 83bd aa45 df3d e7d1 04bd 70f8 ec3d
00000020: 4fc1 933c 7767 ec3d 7a48 6c3d 0e35 f43c
00000030: ed57 85bd 0aeb c6bd 27da 4bbd 5360 78be
00000040: dd67 2abd 3cf9 233e 40c5 8ebe dd2f dfbc
00000050: aa0d 12bd be64 9a3d 3910 ae3d 2483 06be
00000060: 3bfe 7f3d 14de cabd 69eb 17bd 985a 95bd
00000070: 0dcb 043e fe5b 7ebd 4819 26bd 25d8 2abd
00000080: e369 7ebd 5dc8 e7be 1b07 2fbd 04b7 903d
00000090: 0d64 363d 157c 383d b4c2 b73c 4cae b83d
000000a0: 0c33 17bd 8e37 3e3c b82d 9a3d 7eb2 fbbc
000000b0: d546 a33d a4c0 413d 9a51 18be e14c 1f3d
000000c0: 7c3c 703d 618e a63d 7937 d4bd 86f3 623d
000000d0: e516 cb3c 0c12 203d a55a 163d 2008 503d
000000e0: 54ef 8abd b6f9 473f 3a81 15bd 3d8b 7fbd
000000f0: 8fc8 5cbd faf3 e6bc 89e8 bebe 1aab a13d
00000100: adc7 bbbc cfcc e13d d610 333f 8a82 24bd
00000110: 44e6 a03d e571 913d 5f4d c4bd 94fb 52be
00000120: ca48 70bc 672f cc3d 5b2e 533d fb59 dab9
00000130: 5a89 b2bd da82 aa3d 983c c83e d357 5c3c
00000140: d75e 6c3d fa66 d93d d6fe 14bd f73a 2f3d
00000150: 70cc 453c eab3 983b 998f 7dbd 5c2d 853d
00000160: c131 85bd 109c 3c3d 0159 4f3d 05f3 39bb
00000170: 76da 2c3c e286 bd3c eeae 923b 1c63 11bb
00000180: 0225 a63b 2e7b 11bd 4774 3d3c ec5a e03d
00000190: 565a 61bd 7d34 043c 6ef2 373c df48 d33d
000001a0: 4929 943d 5316 aa3d 1d71 d3bc cb38 003d
000001b0: b635 453d 10ea d7bc e373 6b3c c21b b7ba
000001c0: 910d eebc 7d71 22be e3d2 d53d 6d05 9bbd
000001d0: 8e9c 7ebc 5741 783d e6ac c23d 0e9c 22bd
000001e0: e4cb febd ff0f afbb ce30 a1bc e085 a3bc
000001f0: 7c1d 00bb e3d2 9b3b 6994 9a3d 3d1c 32bd
00000200: 4e47 21be 30e0 f8bc 9242 883d b606 783d
00000210: 4a0d 59bd 6422 8b3d 3d0d 973d 2792 86bd
00000220: bdbe 8fbd b3f8 0ebb 7635 55bd f773 a5bb
00000230: 54a3 4ebc c5f5 0fbc 1c5a 0a3d 91e6 9ebc
00000240: a82a a13d a60d d73d 64ef 49be 85e7 7b3d
00000250: 1b2e ea3c 6fcc b53e f5ef 933d 9463 993d
00000260: 45c7 433e 8d1a 1cbd d024 0a3d bbfc 623d
00000270: 24bd cc3d 99b4 193c be72 2f3d 0f74 e4be
00000280: 82b3 41bd b218 85be 94ee 12bd f708 5dbc
00000290: 047e 283d 497b 69bb 2b50 bb3b 34cf 4abd
000002a0: 19ba c3bd 0d95 813d 616f 8fbd 3029 12bd
000002b0: bc14 543c cc80 84bd 38e8 293d dc15 88bd
000002c0: db01 fabc 558e 873d 1229 7c3c 1700 3e3d
000002d0: 1a23 01bd 50a8 003e 5f40 e8bd 81c3 67be
000002e0: 9016 c5bd 0f56 2c3f 62e2 0bbd c5f3 4f3d
000002f0: 7b6f 823d 947a 83bd d975 35bf 16a3 873d
00000300: 7385 f13d 4aba 3bbc 17ce 5a3f 2c8d 6f3d
00000310: 478e 933d 02da 16bd 515e dfbb ae0c 10bf
00000320: cbf2 88bd e353 1f3c 8468 463d aff4 12bd
00000330: e20d a7bd de50 2a3c d955 693e 8ba5 b33d
00000340: ec86 07bd f154 4ebe b933 c3bc c7c3 57bd
00000350: a42b 1d3e 7bc8 c13d c78d 403b 3256 d7bc
00000360: 07c3 7c3d 51fe fcbb 5685 cd3b 5e64 7b3d
00000370: eb1c 7abd 57e0 b33c 2a74 80bd c65e 9dbc
00000380: 6f81 743d d819 873d d7a0 bc3d 36bf 883d
00000390: 8aef f2bc ff3b f93d 7b66 2dbd cfd0 e9bd
000003a0: 7248 bd3d ec8e 2f3d 4cb6 82bd 4702 eb3c
000003b0: 29f0 77bd 8400 ca3c 0555 55bd 5bc0 48bd
000003c0: 632f cd3d 918f 31be 2b65 263e b298 7f3c
000003d0: 1a48 49bd bd48 593d 2085 84bd 3d15 48bd
000003e0: acdf bcbd 2e2e 66bd 6905 efbc 107a 343d
000003f0: 1a67 26bd 1679 c03b abaa dc3c 477d 14bd

layers.layer_2.bias f4 [128]
-0.048319273 0.044451933 -0.07001989 0.06193622 0.0890364 -0.009675021 0.095654234 0.018039193
0.06580417 -0.03145775 0.0013601615 -0.055312008 -0.025841298 -0.06934235 0.068369776 -0.096787944
0.09731451 0.06868861 -0.017126115 0.025082152 0.06632568 -0.049192257 -0.01649153 0.017034674
0.08230924 -0.06819382 0.018429501 0.07692344 -0.005580592 0.019792054 0.104924865 -0.021558752
-0.07197986 0.00685254 0.04849574 -0.047297962 0.07645312 -0.081555575 0.05278983 -0.076040074
-0.06654891 0.08344071 -0.042959876 -0.003262584 -0.0007064775 -0.039859522 -0.034669023 -0.022874951
0.05284238 0.092754364 -0.044437043 0.031037154 0.028398147 -0.004711314 -0.031365838 0.015785612
-0.044978768 0.014792227 0.04244003 -0.042968523 -0.045831338 -0.022792934 0.07590075 -0.08653648
0.10618023 0.027194116 0.02488833 0.108930476 -0.07344773 0.09896283 0.07490633 -0.004825476
0.07153674 -0.06835738 0.037668277 0.05357117 -0.0661744 -0.037669618 0.06354023 -0.06646602
0.0032567948 0.07915759 -0.0022713866 0.043133605 0.023470981 0.032319978 0.042015824 -0.055098057
0.07432096 0.052876133 0.051925685 -0.004844148 -0.0097028995 -0.008173992 0.10032243 -0.013380072
-0.019756498 -0.0050966283 -0.015031426 -0.054884292 0.107337475 -0.06863674 0.032235023 0.015519624
0.104794405 0.057894967 -0.0043092417 0.110892914 0.021306816 0.08688073 0.09134203 0.009751998
-0.026440782 -0.0033984177 -0.03382814 -0.06198362 0.08913298 0.08339534 0.0094289845 0.03923965
-0.08548274 -0.13730916 0.089449465 -0.09108963 -0.02233042 -0.011446792 -0.05350996 0.082836375
00000000: 6eea 45bd 3b13 363d 9766 8fbd d5b0 7d3d
00000010: b758 b63d fb83 1ebc 5ee6 c33d eec6 933c
00000020: 56c4 863d d7d9 00bd 7247 b23a d88e 62bd
00000030: 21b1 d3bc 5d03 8ebd 7405 8c3d c238 c6bd
00000040: d44c c73d 9dac 8c3d 114c 8cbc 1679 cd3c
00000050: c2d5 873d d27d 49bd 3f19 87bc 4d8c 8b3c
00000060: bf91 a83d 34a9 8bbd 77f9 963c 098a 9d3d
00000070: 66dd b6bb f222 a23c d9e2 d63d fb9b b0bc
00000080: 2d6a 93bd 468b e03b 78a3 463d 82bb 41bd
00000090: 7493 9c3d 9c06 a7bd 263a 583d e6ba 9bbd
000000a0: cc4a 88bd f7e2 aa3d b2f6 2fbd 14d1 55bb
000000b0: e732 39ba bd43 23bd 1b01 0ebd 4064 bbbc
000000c0: 4071 583d 00f6 bd3d 9e03 36bd a141 fe3c
000000d0: 3ba3 e83c 5e61 9abb 7779 00bd d450 813c
000000e0: a83b 38bd 195b 723c 99d5 2d3d c3ff 2fbd
000000f0: a4b9 3bbd 3fb8 babc da71 9b3d 0a3a b1bd
00000100: 0575 d93d 32c6 de3c 9ce2 cb3c f116 df3d
00000110: c36b 96bd 06ad ca3d 7d68 993d 071f 9ebb
00000120: db81 923d f4fe 8bbd 0d4a 1a3d 716d 5b3d
00000130: 7286 87bd 754b 1abd 6121 823d 561f 88bd
00000140: f36f 553b 601d a23d 8bdb 14bb ddac 303d
00000150: 3746 c03c f461 043d c918 2c3d 80ae 61bd
00000160: 9635 983d a594 583d 07b0 543d a9bb 9ebb
00000170: e9f8 1ebc 35ec 05bc d975 cd3d 1738 5bbc
00000180: 61d8 a1bc 9e01 a7bb 5f46 76bc 5ace 60bd
00000190: c0d3 db3d 6b91 8cbd df08 043d 0546 7e3c
000001a0: 739e d63d 4623 6d3d 8a34 8dbb d31b e33d
000001b0: a28b ae3c 86ee b13d 8811 bb3d d8c6 1f3c
000001c0: 579a d8bc fdb7 5ebb 608f 0abd 89e2 7dbd
000001d0: 5a8b b63d 2dcb aa3d 077c 1a3c c1b9 203d
000001e0: 9311 afbd c69a 0cbe 4831 b73d 338d babd
000001f0: 49ee b6bc 538b 3bbc 432d 5bbd 1ea6 a93d

layers.layer_3.weight f4 [128, 128]
-0.08291727 -0.052033767 -0.013900288 -0.050475076 -0.0028939922 -0.02209387 0.111257195 -0.014994805
-0.020572977 -0.67615205 0.010395329 -0.10998354 -0.01411349 0.025649982 0.011559477 -0.11096912
0.10962996 0.024709253 0.086430974 -0.12738988 0.0022193734 -0.021599488 0.04500922 0.40197837
0.051690154 -0.1268981 -0.8896154 0.026151761 -0.07432531 0.03402964 0.018346421 -0.10474079
0.015101443 0.06761681 0.011109431 0.05352271 0.031670578 0.025349412 -0.11611055 -0.022924693
0.02064988 0.5015519 -0.0012444848 -0.10218291 -0.047537126 -0.053457525 0.0061363564 0.025235884
0.21038176 -0.033794213 0.040783968 0.049192265 0.02891341 0.035554364 0.12532862 0.023577906
0.13375771 -0.0078114346 0.037822556 0.08746557 0.052825637 -0.078334495 0.00957982 -0.015850175
0.08837855 0.02826589 -0.06276451 0.079213165 0.038697705 0.07881394 -0.10782334 0.06748297
0.052130137 0.02175179 0.037635967 0.0027541418 -0.07267045 -0.046288803 0.04985162 0.22639889
-0.034722034 0.07192003 0.08553542 -0.103133745 0.026591398 -0.05713825 -0.016339863 0.11718647
-0.02231745 -0.09852847 -0.12389278 -0.041818418 -0.00071476836 0.09403264 -0.011427904 0.11255183
0.048154987 0.10785039 0.039485212 0.08160497 0.053800855 -0.08334877 -0.11492979 0.017331755
0.08982181 0.026816094 -0.016255654 0.05001574 0.04375913 -0.15588279 -0.018987665 0.09968825
0.11350018 -0.02415905 0.10600227 0.03489558 -0.048034314 -0.0077278567 -0.059938904 0.03105515
-0.0035032881 -0.07130239 0.023653457 0.026965778 -0.05458586 -0.046176556 0.071845174 -0.0890613
-0.12665741 -0.13710819 -0.15149485 -0.029257469 0.06479519 -0.052020345 -0.05629384 -0.07515513
-0.009050975 -0.30806696 -0.036539108 -0.118491344 -0.019775035 -0.046470083 0.06708027 0.0018168506
0.104480244 0.054351963 0.014669123 -0.13660638 -0.08726266 0.02499492 0.130116 0.55019724
-0.09444195 0.019316118 -0.40552106 -0.008437446 -0.12825523 0.13780248 0.10910916 0.056647494
-0.05693782 0.0027589537 0.048837025 -0.07717376 0.048062064 0.093320414 -0.0022846863 0.047943067
-0.056929033 0.5843734 0.09627979 -0.045411676 -0.0070774793 0.038906123 -0.013450026 0.10662919
-0.11222702 -0.021915415 0.051897164 0.06498732 0.042833358 -0.057206135 0.11787956 0.16652104
0.07461031 -0.06279165 -0.026884893 0.08806252 0.018407058 0.06744828 0.0016714345 0.0511241
-0.043279357 -0.009784543 0.044617716 0.10145227 0.016366659 0.0614345 -0.02327319 -0.070554286
-0.009093776 -0.099860206 0.05176473 -0.026100947 0.038888898 -0.018528478 0.061688524 0.009972363
0.03083969 -0.058101226 -0.033165596 0.063565776 0.04015683 -0.1239671 0.12995441 0.06324531
-0.0027643843 -0.07500595 0.03174003 0.07007579 -0.040214624 0.06931398 0.052526042 0.122538805
0.14334156 0.021032626 0.02741243 0.04510531 0.062431138 -0.07867656 -0.017723018 -0.02129
0.12103988 -0.12733908 -0.036590513 0.12375917 0.01626465 -0.14895666 0.060438845 -0.009943945
0.055081982 0.13165851 -0.12184754 -0.012424873 -0.015002753 0.12602158 0.069806 0.057135694
-0.050504778 -0.205374 -0.019563109 -0.19120418 0.037462536 -0.0016349694 -0.050793253 0.029442577
00000000: 88d0 a9bd 5c21 55bd 09be 63bc f4be 4ebd
00000010: 22a9 3dbb 34fe b4bc d0da e33d c5ac 75bc
00000020: a988 a8bc 4d18 2dbf 2c51 2a3c 0d3f e1bd
00000030: 443c 67bc e91f d23c f663 3d3c c743 e3bd
00000040: ac85 e03d 0f6b ca3c b902 b13d 7e72 02be
00000050: e872 113b 69f1 b0bc 965b 383d 1cd0 cd3e
00000060: 0eb9 533d 93f1 01be d6bd 63bf 383c d63c
00000070: de37 98bd aa62 0b3d 3c4b 963c 5782 d6bd
00000080: 0b6c 773c af7a 8a3d 5504 363c a13a 5b3d
00000090: 02b9 013d 92a9 cf3c 5ecb edbd 91cc bbbc
000000a0: f029 a93c b565 003f fb1d a3ba 4645 d1bd
000000b0: 4ab6 42bd 47f6 5abd 7d13 c93b 7cbb ce3c
000000c0: 516e 573e cd6b 0abd 170d 273d d47d 493d
000000d0: d1db ec3c 74a1 113d 2556 003e 7426 c13c
000000e0: c8f7 083e 10f7 ffbb d3eb 1a3d 2621 b33d
000000f0: b25f 583d d66d a0bd adf4 1c3c 3ad8 81bc
00000100: d0ff b43d de8d e73c ae8a 80bd 833a a23d
00000110: 7c81 1e3d 3469 a13d 7cd2 dcbd 8334 8a3d
00000120: 6986 553d cf30 b23c 2c28 1a3d d57e 343b
00000130: 3fd4 94bd 5499 3dbd 3631 4c3d 1cd5 673e
00000140: b138 0ebd cf4a 933d 322d af3d c937 d3bd
00000150: 34d6 d93c cc09 6abd 2ddb 85bc 76ff ef3d
00000160: 16d3 b6bc 4bc9 c9bd 7fbb fdbd ca49 2bbd
00000170: 4b5f 3bba 2f94 c03d 1a3c 3bbc 9381 e63d
00000180: 2a3e 453d aae0 dc3d 3fbb 213d 8220 a73d
00000190: 495e 5c3d c3b2 aabd 4f60 ebbd 53fb 8d3c
000001a0: 7ff4 b73d 6dad db3c 942a 85bc 4edd 4c3d
000001b0: c63c 333d bd9f 1fbe 058c 9bbc 5a29 cc3d
000001c0: c872 e83d 33e9 c5bc b817 d93d abee 0e3d
000001d0: a1bf 44bd f639 fdbb 7f82 75bd 5f67 fe3c
000001e0: 6c97 65bb fd06 92bd e5c4 c13c 56e7 dc3c
000001f0: 6c95 5fbd a123 3dbd 9023 933d c565 b6bd
00000200: 7bb2 01be 1766 0cbe 7721 1bbe 5cad efbc
00000210: 57b3 843d 4913 55bd 5f94 66bd efea 99bd
00000220: 8a4a 14bc f4ba 9dbe 08aa 15bd 97ab f2bd
00000230: 41ff a1bc 6a57 3ebd 6161 893d 6423 ee3a
00000240: bdf9 d53d 2aa0 5e3d c356 703c 8be2 0bbe
00000250: c4b6 b2bd 25c2 cc3c 213d 053e bad9 0c3f
00000260: c86a c1bd d63c 9e3c 75a0 cfbe 373d 0abc
00000270: 5755 03be 181c 0d3e a074 df3d 3407 683d
00000280: a237 69bd 90cf 343b 5509 483d 470d 9ebd
00000290: badc 443d c61e bf3d adba 15bb f35f 443d
000002a0: 6b2e 69bd 7f99 153f 572e c53d 9801 3abd
000002b0: 33ea e7bb 075c 1f3d 7f5d 5cbc 6860 da3d
000002c0: 48d7 e5bd f587 b3bc 1f92 543d 1218 853d
000002d0: 0872 2f3d fb50 6abd d76a f13d 7e84 2a3e
000002e0: 4acd 983d e998 80bd b53d dcbc 1f5a b43d
000002f0: 66ca 963c 5322 8a3d 0914 db3a 8167 513d
00000300: b245 31bd 594f 20bc 11c1 363d 35c6 cf3d
00000310: 5f13 863c bea2 7b3d 6ba7 bebc c47e 90bd
00000320: 10fe 14bc 8283 ccbd 4107 543d a7d1 d5bc
00000330: f749 1f3d 09c9 97bc 1bad 7c3d 1f63 233c
00000340: 84a3 fc3c 8dfb 6dbd a6d8 07bd c62e 823d
00000350: 7d7b 243d 77e2 fdbd c512 053e c286 813d
00000360: ac2a 35bb b89c 99bd d501 023d e583 8f3d
00000370: 17b8 24bd 7df4 8d3d 8c25 573d a0f5 fa3d
00000380: 21c8 123e 9d4c ac3c 0890 e03c 58c0 383d
00000390: cbb7 7f3d 2d21 a1bd dd2f 91bc 5e68 aebc
000003a0: c2e3 f73d 2d65 02be efdf 15bd 7375 fd3d
000003b0: 713d 853c 1888 18be b98e 773d eeeb 22bc
000003c0: a59d 613d 7dd1 063e 348b f9bd b291 4bbc
000003d0: 1bce 75bc cd0b 013e 73f6 8e3d 1e07 6a3d
000003e0: 19de 4ebd 904d 52be d042 a0bc 07cb 43be
000003f0: 5172 193d 784c d6ba 960c 50bd 8f31 f13c

layers.layer_3.bias f4 [128]
0.049796883 -0.015570929 -0.060751732 -0.032606695 -0.05893919 -0.022148365 0.053365115 0.055591796
0.04314566 -0.03616934 -0.054277368 0.090889685 0.039042052 0.0011728553 -0.06344748 -0.0054784087
0.07670839 0.08458933 -0.045888092 -0.056308523 -0.034373388 -0.011681165 -0.062640056 -0.011068053
0.04078353 -0.012837767 0.0063577676 -0.01738215 -0.02856906 0.07200313 0.10031695 0.052235547
-0.041258346 0.0961508 -0.021414602 0.0011238867 -0.050296072 0.06232417 -0.059771746 0.053668153
-0.016506275 0.08944635 0.024299761 0.02413645 -0.066065766 0.0020876115 -0.0417796 0.015936349
0.010197958 0.0005428523 -0.0073248604 0.04236336 0.09679238 0.06517554 0.047141466 -0.084512435
0.03768196 0.010272298 -0.03242005 0.041367173 0.022608038 0.0567304 0.092033274 0.08114645
0.05892159 0.014695081 0.0402434 -0.00695107 0.018456241 -0.010500682 0.0589923 0.071623944
-0.018446546 0.05342124 0.02122513 0.004442095 0.0022199184 0.027871879 0.094610184 0.017010758
0.042226978 0.103049494 -0.024114434 0.01324455 0.026578784 -0.043712012 -0.012835667 0.04371433
0.028343933 -0.055023354 0.08509345 -0.053059645 -0.010313168 -0.041915156 0.07805563 -0.009992674
0.02702203 0.10337008 0.070400305 0.026148226 0.09458719 0.09414443 -0.039482504 -0.031729262
0.07333113 0.084314086 0.04679968 0.023080783 -0.06273588 0.0520301 0.052214146 0.038399853
0.044142693 -0.035343718 0.0054990677 -0.0858702 0.052732304 0.07565699 0.062430363 -0.082495145
0.05062839 -0.046614796 0.086650126 0.09598455 0.07745961 0.063262664 -0.06477761 0.010734338
00000000: d1f7 4b3d 361d 7fbc cfd6 78bd 998e 05bd
00000010: 386a 71bd 7d70 b5bc 6195 5a3d 39b4 633d
00000020: 81b9 303d 4d26 14bd f251 5ebd 5f24 ba3d
00000030: 8fea 1f3d 7eba 993a c1f0 81bd 3984 b3bb
00000040: 4a19 9d3d 2c3d ad3d 27f5 3bbd c4a3 66bd
00000050: 1ccb 0cbd 5b62 3fbc 6e49 80bd c756 35bc
00000060: a10c 273d 7f55 52bc d254 d03b 0365 8ebc
00000070: a909 eabc 6176 933d f972 cd3d f1f4 553d
00000080: 83fe 28bd b6ea c43d ad6d afbc 614f 933a
00000090: 4103 4ebd a147 7f3d 38d3 74bd 23d3 5b3d
000000a0: 2b38 87bc a62f b73d 4b10 c73c ceb9 c53c
000000b0: 7d4d 87bd 4fd0 083b 1621 2bbd f28c 823c
000000c0: 5615 273c 344e 0e3a 6205 f0bb 3485 2d3d
000000d0: 153b c63d c17a 853d 6917 413d db14 adbd
000000e0: 6658 1a3d 244d 283c e3ca 04bd a070 293d
000000f0: 7e34 b93c 235e 683d f17b bc3d 1c30 a63d
00000100: c457 713d a3c3 703c 43d6 243d cdc5 e3bb
00000110: 8b31 973c 0d0b 2cbc e9a1 713d 93af 923d
00000120: 361d 97bc 3bd0 5a3d 53e0 ad3c fe8e 913b
00000130: 0d7c 113b 9153 e43c fcc2 c13d 255a 8b3c
00000140: 32f6 2c3d 9d0b d33d a28b c5bc abff 583c
00000150: c0bb d93c 5e0b 33bd b04c 52bc cc0d 333d
00000160: 8931 e83c 2b60 61bd 7a45 ae3d 1255 59bd
00000170: 90f8 28bc 3aaf 2bbd a1db 9f3d 50b8 23bc
00000180: 4e5d dd3c b1b3 d33d 092e 903d ce34 d63c
00000190: eeb6 c13d cbce c03d 68b8 21bd 8bf6 01bd
000001a0: a22e 963d ddac ac3d 05b1 3f3d e913 bd3c
000001b0: ab7b 80bd 841d 553d 80de 553d 2a49 1d3d
000001c0: f8ce 343d 93c4 10bd 8631 b43b b7dc afbd
000001d0: d4fd 573d 0df2 9a3d fbb6 7f3d 37f3 a8bd
000001e0: b75f 4f3d 28ef 3ebd 9f75 b13d 8c93 c43d
000001f0: 25a3 9e3d db8f 813d 20aa 84bd 14df 2f3c

layers.layer_4.weight f4 [2, 128]
-0.03668154 0.1227214 0.063057125 0.03756028 0.05604117 -0.09065838 -0.16240972 0.063803695
-0.17974187 0.043950506 -0.12021612 -0.08788959 0.16213499 -0.17126611 -0.08260721 0.13031402
-0.09563568 0.05667958 0.12801379 -0.134706 -0.01632398 0.14812721 -0.08076318 0.3649385
-0.14942595 -0.091433644 -0.03290394 -0.06841486 -0.14682715 0.02817733 -0.05032225 -0.15081325
0.1197769 -0.15401477 0.11586608 -0.1376761 0.1340424 0.12789057 -0.01410502 0.16012499
-0.09188641 -0.12733543 -0.1709264 0.13922194 0.050724577 -0.18354547 0.08664257 0.10983709
0.028585127 0.11576424 -0.18480967 0.13117556 0.13943025 -0.03697526 0.10657143 -0.0070367325
0.09546526 -0.049484763 -0.07633319 0.13765907 0.14650512 -0.037718274 -0.1608777 -0.17051943
0.041008335 -0.095542476 -0.0284601 0.14978844 -0.110099055 0.10145874 -0.17973973 0.1744863
0.1710857 -0.07426602 -0.14786097 0.07511371 0.067265525 0.13904664 -0.100581765 0.035330486
0.15118918 -0.0035060826 0.08209944 -0.07362824 0.098656826 0.036204606 -0.01976623 0.024408357
-0.15541078 -0.026507534 0.13758118 0.047815096 -0.0339321 0.16736118 -0.13075171 0.21853378
-0.1282771 -0.18608212 -0.07714444 0.09053585 0.12038671 -0.17165661 0.061119534 -0.115566164
-0.01675762 -0.16307147 0.13305493 0.10722769 0.061125364 0.17843923 -0.014003396 0.16201225
-0.15288128 -0.03947283 0.021019502 -0.04587018 0.17252764 0.15281071 -0.13857122 -0.02656576
0.11102332 0.105721965 -0.107565485 0.18776889 0.1668937 0.13490935 0.00493549 -0.07663066
0.15711616 0.15526597 0.0021413127 -0.018327061 0.16685954 -0.1646227 0.058232453 0.12843972
-0.1189016 0.14950466 0.05711167 -0.119187325 -0.041197322 0.12035194 0.038367603 -0.14271124
0.16111796 0.1529202 0.1346061 0.14498244 0.0025546048 0.06125353 0.04391221 -0.045207035
-0.08330697 -0.15516855 -0.06688945 0.0829162 -0.15048274 -0.15665093 0.1675555 -0.109292366
-0.09231928 0.06608821 -0.09624433 0.12850447 -0.13890313 -0.12724791 0.053629305 -0.07699078
-0.19204934 -0.08405066 0.081327684 0.10775023 0.11612135 0.03695615 0.16075608 -0.15230444
-0.015016142 -0.15452331 0.033982556 -0.10141957 0.020536827 -0.14455032 -0.10450365 0.061456807
0.06725899 -0.034704547 0.058317475 -0.17102662 0.099612914 -0.15860946 0.13871814 -0.07685594
0.16707228 -0.13051149 -0.16876577 -0.15614714 0.08765192 0.15731022 0.12893806 0.045196958
-0.060877115 -0.13060172 0.05032706 0.017821232 0.054104395 0.00417259 -0.14629637 0.16344199
-0.044924214 0.16785587 0.012509843 -0.14522204 -0.12173991 -0.08193585 0.13518465 -0.18710887
-0.033267394 -0.18126962 0.14322925 -0.14977887 0.13710582 -0.09299672 0.12562059 0.10325609
0.0886023 -0.009425578 -0.19301906 -0.09212943 -0.107946075 -0.1043862 0.045348365 0.058354437
-0.011904092 -0.073968604 0.1584866 -0.12965852 -0.032662205 -0.092627525 0.17728509 0.14568076
-0.12333568 -0.025607506 0.17524683 0.012767703 -0.10278869 -0.13489442 -0.1443434 0.0639222
-0.0522736 -0.22770508 -0.16502938 -0.037124716 -0.096184336 0.09764899 -0.15894894 0.04965491
00000000: 623f 16bd 5b55 fb3d 1824 813d cfd8 193d
00000010: 6d8b 653d 1aab b9bd bc4e 26be 83ab 823d
00000020: 410e 38be 7205 343d de33 f6bd 75ff b3bd
00000030: b706 263e 6260 2fbe f82d a9bd 0a71 053e
00000040: a4dc c3bd d928 683d 0c16 033e 5ff0 09be
00000050: deb9 85bc a9ae 173e 2b67 a5bd 38d9 ba3e
00000060: 1e03 19be 9041 bbbd 48c6 06bd 171d 8cbd
00000070: db59 16be 25d4 e63c b41e 4ebd ca6e 1abe
00000080: 974d f53d 0cb6 1dbe 324b ed3d f7fa 0cbe
00000090: 6942 093e bff5 023e be18 67bc cef7 233e
000000a0: f12e bcbd 3864 02be 5507 2fbe 3290 0e3e
000000b0: 93c4 4f3d 58f3 3bbe a971 b13d 45f2 e03d
000000c0: 5b2b ea3c cd15 ed3d bf3e 3dbe e352 063e
000000d0: cec6 0e3e 5f73 17bd 1f42 da3d 6494 e6bb
000000e0: 4a83 c33d 89b0 4abd 9354 9cbd 80f6 0c3e
000000f0: 7005 163e 7a7e 1abd 20bd 24be a59c 2ebe
00000100: 5bf8 273d c6ab c3bd 2825 e9bc 2462 193e
00000110: 9d7b e1bd 9ac9 cf3d b10d 38be 89ac 323e
00000120: 1731 2f3e c818 98bd de68 17be 37d5 993d
00000130: 82c2 893d 3e62 0e3e d0fd cdbd b3b6 103d
00000140: 56d1 1a3e 4ec6 65bb c023 a83d 67ca 96bd
00000150: 970c ca3d 484b 143d caec a1bc 09f4 c73c
00000160: 0124 1fbe 5426 d9bc 15e2 0c3e c3d9 433d
00000170: 63fc 0abd bb60 2b3e c7e3 05be 52c7 5f3e
00000180: 125b 03be 508c 3ebe e7fd 9dbd dc6a b93d
00000190: 4f8d f63d c0c6 2fbe 7a58 7a3d f4ad ecbd
000001a0: 4747 89bc 35fc 26be 8d3f 083e 319a db3d
000001b0: 975e 7a3d c6b8 363e 806e 65bc 8ae6 253e
000001c0: e98c 1cbe 43ae 21bd 1731 ac3c 5fe2 3bbd
000001d0: 16ab 303e 697a 1c3e 9de5 0dbe 70a0 d9bc
000001e0: 3260 e33d c284 d83d 4b4b dcbd 7d46 403e
000001f0: 2fe6 2a3e ad25 0a3e e4b9 a13b 89f0 9cbd
00000200: 0fe3 203e 0bfe 1e3e 4455 0c3b a222 96bc
00000210: 3add 2a3e da92 28be 2785 6e3d b485 033e
00000220: af82 f3bd c017 193e eded 693d 7c18 f4bd
00000230: 86be 28bd 147b f63d 5927 1d3d e522 12be
00000240: 1bfc 243e 1d97 1c3e 2ed6 093e 4776 143e
00000250: 286b 273b fbe4 7a3d 4add 333d 032b 39bd
00000260: d89c aabd 81e4 1ebe 56fd 88bd f8cf a93d
00000270: 2618 1abe 1a69 20be ab93 2b3e add4 dfbd
00000280: e411 bdbd 4159 873d bf1b c5bd ad96 033e
00000290: 9f3c 0ebe 474d 02be 67aa 5b3d 58ad 9dbd
000002a0: 95a8 44be c122 acbd 218f a63d 27ac dc3d
000002b0: 08d1 ed3d 555f 173d 3e9d 243e b2f5 1bbe
000002c0: 4406 76bc 5c3b 1ebe 4b31 0b3d 10b5 cfbd
000002d0: d93c a83c 0005 14be 0206 d6bd 22ba 7b3d
000002e0: 15bf 893d 5b26 0ebd 4ede 6e3d 9a21 2fbe
000002f0: db01 cc3d 856a 22be 210c 0e3e a666 9dbd
00000300: ff14 2b3e cea4 05be efd0 2cbe 09e5 1fbe
00000310: da82 b33d ee15 213e 5708 043e 7220 393d
00000320: 485a 79bd 75bc 05be bf23 4e3d d5fd 913c
00000330: 929c 5d3d 39ba 883b b7ce 15be 565d 273e
00000340: 7402 38bd 69e2 2b3e 16f6 4c3c 16b5 14be
00000350: c652 f9bd fccd a7bd d86d 0a3e 7899 3fbe
00000360: 6443 08bd be9e 39be b0aa 123e a25f 19be
00000370: 7865 0c3e 1075 bebd afa2 003e ee77 d33d
00000380: 1f75 b53d bd6d 1abc caa6 45be 5bae bcbd
00000390: d512 ddbd 6fc8 d5bd 35bf 393d 1005 6f3d
000003a0: 6109 43bc da7c 97bd 504a 223e 34c5 04be
000003b0: cec8 05bd 80b3 bdbd 398a 353e 562d 153e
000003c0: 6b97 fcbd d5c6 d1bc e873 333e a12f 513c
000003d0: e082 d2bd c321 0abe c2ce 13be a4e9 823d
000003e0: d81c 56bd 852b 69be 76fd 28be 1610 18bd
000003f0: 4bfc c4bd 32fc c73d 83c3 22be f262 4b3d

layers.layer_4.bias f4 [2]
-0.017953554 -0.054386377
00000000: 5513 93bc 40c4 5ebd
