models/score_model_embedded.pth (torch, 213038 bytes, 10 tensors)

layers.layer_0.weight f4 [128, 18]
00000000: 13e8 8a3e b92b e03e bb57 d43e 7a64 983e
00000010: de83 ab3d 3d77 e5bb 163b d83a 74c8 003e
00000020: 7aeb 6ebd 6404 9fbd de24 3f3d 9334 d43c
00000030: d8c8 dfbd b1c7 1dbe ba3a 43be 5795 4fbb
00000040: d821 3fbd dd4b bdbc 3371 3cbd 2fd0 48bd
00000050: dddd 0dbf 9bf8 0abe 09b2 96be 9501 94be
00000060: 219d a2bd 2efe c33d b0b2 3ebd 4779 a1bb
00000070: 84de d63e 47b4 cd3d 1b2e 03be 845e 1b3e
00000080: 92d5 61bd 6694 2abd 0bcb 533c abbe 0f3d
00000090: ffd8 6a3d c03a cf3e f75f 713d c3a9 153e
000000a0: 8510 d3bd e5fc 2bbe 8f2b 2a3e 2665 2a3e
000000b0: f78b e2bd 0287 ed3d bc25 2e3e 7885 ab3d
000000c0: b704 2e3e 035a b4bd 6abf acbd 95d3 febd
000000d0: 6e40 febd 9efd 5d3d a845 87be 21d0 42be
000000e0: bdd8 9f3e cc12 153e af11 28be 6d3e 343e
000000f0: 7f7d fcbc 26d1 b2bd 6673 1a3e 2dea 77bd
00000100: 6bd9 0d3e 57d3 d0bc 382c 05bc fe7d d53c
00000110: 303e 983d ee27 593e c51c 303d 0a78 5d3d
00000120: b5a0 8e3e cb01 b9be 3d9d 87bd a21f 863e
00000130: 3fe1 6f3e 27f2 8e3d 2149 16bc 9795 bd3d
00000140: 50fd a2bc 1008 473d e857 50be 4777 463e
00000150: 24bc 21be eb4b debc 357e e43c fb31 1a3e
00000160: 8c32 fd3c b1dd 53bd 79b6 93be 47c1 58be
00000170: e19e 653e a282 653d 1951 1b3e 19e4 ee3d
00000180: 57c3 9d3d 775f ccbd 4728 85bd 577b e43c
00000190: fec1 353e 4460 64be 9a61 0ebe dbab 2fbe
000001a0: c4c7 b2bc 41cf 183c f20a d2bc 0adc c2bd
000001b0: 78b6 b23e 87a6 09be b2b1 343b 3e5f 913e
000001c0: 28df 493e 60ec dbbd 9d7c 913c e87e 1cbe
000001d0: 787e 14be 27e4 853d 9f4c 9ebe f9f0 2cbe
000001e0: 43f7 3ebe 5d39 2cbd 18af 0b3e 9860 38bd
000001f0: f124 8cbd e1e3 9bbd f527 fbbe 0b95 dc3e
00000200: f506 093e 10b8 a83c 57ca 54be ff20 08be
00000210: efd8 bdbc bb1d 18bd 6f7b 4cbc acc7 54bc
00000220: 0298 993e b8c9 353e fed0 04bd 3da8 8e3d
00000230: 5b77 af3c 6928 ca3c 4f0a acbc d5c0 eaba
00000240: a004 1bbf 45a8 0b3d e1ee 25be 854b d6bd
00000250: 96e7 86bb 4eea 1d3d 267e 583d 456b 153c
00000260: fd4a 4f3d ddde 523d 5fdb 3e3e d808 5bbe
00000270: 5947 14bd e9e8 443e c608 e53d 9222 543c
00000280: 34dd 40bb b742 38bd d981 fabe 0e27 a3be
00000290: 6ba1 bc3e b398 3e3e 3138 76bd da7f b23d
000002a0: 1520 20be f1fb 543d efb5 17be 7b0f 3f3c
000002b0: 207b e23d a497 a2bd df96 aabd 4d95 8dbd
000002c0: 9950 533d 4b8f 20be 623a 1dbd 6958 bbbd
000002d0: 5b79 e3be 0671 b33e 77f8 ef3e ec73 933e
000002e0: b433 7c3c 262c d5bd 3093 8abd b8a6 5cbd
000002f0: fb42 1b3d ab88 a73b 3b1e 853e 6252 663d
00000300: b32b a33d 4bc7 7a3d a6fc 293e 3b9d f9bd
00000310: b9be c8bd e157 083d 9884 e33e b7c5 883e
00000320: 448a 4f3e d26a 4c3e 4f63 d1bd 1b80 37bc
00000330: 93a0 1bbe 4e3f b9bd df7f 7e3d 2b20 c93c
00000340: 9c8b 743e 8a64 643d d977 49be 7887 fbbd
00000350: 5e18 0e3e 2f5c 9f3d 80e7 103d 7c56 9b3c
00000360: 2329 c3bc 9caa d0be 176f 9c3e e087 88bd
00000370: b6ec 5abd 8f13 84bd 4835 b5bd b0d6 c5bd
00000380: 2c56 f0bd 0c1f 65bd 3392 973e 9500 09bc
00000390: 29d5 693d b871 0d3e f99b 26be 64e5 60bc
000003a0: b826 c53b cd4f 7abd 5a3a 813e 08e2 53be
000003b0: 46a3 8b3e 12f8 9c3d 7423 833e 00c7 fd3d
000003c0: 8d2d be3b 954b dc3c 811a ca3d c08b c83c
000003d0: a64f 31be 8f76 9b3d d6d2 99bc 86b5 0d3e
000003e0: 1c0b e3bc dabc 1dbe 7a3b b13d fc42 9ebd
000003f0: 3af4 44be db09 c9be 9270 9f3e cb86 5a3d
0.27130184 0.43783358 0.41473183 0.29764158 0.08374761 -0.0070027397 0.0016497101 0.12576467
-0.058330037 -0.07764509 0.04666602 0.025903976 -0.1092698 -0.15408207 -0.19065371 -0.0031674707
-0.046663135 -0.023107463 -0.046006393 -0.049026664 -0.5541666 -0.13571398 -0.29432705 -0.28907457
-0.07940126 0.09569965 -0.04655713 -0.0049277875 0.4196664 0.10044151 -0.12810557 0.15172774
-0.055135317 -0.04164543 0.012926827 0.035093945 0.05733585 0.4047451 0.05892941 0.1461554
-0.10305885 -0.1679569 0.16618179 0.16640148 -0.110618524 0.11598016 0.17006582 0.083750665
0.16993986 -0.08806231 -0.08434947 -0.124427 -0.12414633 0.054196946 -0.2642033 -0.19024707
0.31220046 0.14557952 -0.16412996 0.17601939 -0.03082156 -0.08731298 0.15083084 -0.06052606
0.1385247 -0.0254914 -0.008128218 0.026061054 0.07433736 0.21206638 0.042996187 0.054069556
0.27856985 -0.3613418 -0.06621788 0.2619601 0.23425768 0.06979781 -0.009172709 0.092570476
-0.01989618 0.048591673 -0.20346034 0.19381438 -0.15794426 -0.02713581 0.027892211 0.15058129
0.030907892 -0.051725093 -0.28850153 -0.2116748 0.22423889 0.056032784 0.15167655 0.116646
0.07703274 -0.09979146 -0.06501823 0.027890844 0.17749783 -0.22302347 -0.1390442 -0.17155401
-0.021823771 0.009326757 -0.025639985 -0.09514625 0.34904838 -0.13442431 0.0027571735 0.28392977
0.19714034 -0.10738444 0.017759616 -0.15282786 -0.14501369 0.06537657 -0.30917832 -0.16888799
-0.1864901 -0.042046893 0.13641012 -0.045013994 -0.068429835 -0.07611824 -0.49053922 0.4308246
0.1338156 0.02059558 -0.20780312 -0.13293837 -0.023174731 -0.03713773 -0.012480601 -0.012987059
0.29998785 0.17752731 -0.032425873 0.06965683 0.021419218 0.024677472 -0.02100101 -0.0017910252
-0.6055393 0.03409602 -0.16204406 -0.10463623 -0.0041169627 0.03855353 0.05285468 0.009119813
0.050608624 0.05148207 0.18638371 -0.21390092 -0.036200855 0.19229473 0.11183314 0.012947695
-0.0029428722 -0.0449855 -0.4892719 -0.31865734 0.36841902 0.18612938 -0.060112182 0.08715792
-0.15637238 0.051998083 -0.14815496 0.011661406 0.110586405 -0.079390794 -0.083295576 -0.069132425
0.051590536 -0.15679662 -0.038385756 -0.09147722 -0.44428524 0.35047168 0.4686925 0.2879938
0.015393186 -0.10408811 -0.06766355 -0.053869933 0.037905674 0.0051127276 0.25999627 0.05623091
0.07967319 0.061225217 0.16600284 -0.121881925 -0.098020025 0.033286933 0.44437099 0.26713344
0.20267588 0.19962624 -0.1022402 -0.011199976 -0.15197973 -0.090452775 0.062133666 0.024551472
0.23881382 0.055759944 -0.19674625 -0.12281698 0.13876483 0.077812545 0.035377026 0.018962137
-0.023823326 -0.40755165 0.30553505 -0.06666541 -0.0534484 -0.06449043 -0.08848053 -0.09660089
-0.11735186 -0.05593781 0.2960373 -0.008361955 0.05708805 0.13812912 -0.16270436 -0.013726566
0.0060165785 -0.06111126 0.2523983 -0.20691693 0.27273005 0.07664503 0.25612986 0.12391472
0.00580377 0.02689151 0.098683365 0.0244807 -0.1731554 0.07590973 -0.018777292 0.13838777
-0.027715258 -0.15404072 0.086539224 -0.0772762 -0.1923379 -0.39265332 0.31140572 0.053351205

layers.layer_0.bias f4 [128]
00000000: 882c 29bd b847 6e3e 5e83 973e bc9f f4bd
00000010: 1d13 14bd ed6a 693d fc55 473d 0959 dabd
00000020: 1a2a afbb 7ecb d3bd db8d 6abc c3f7 00be
00000030: 2912 1f3e e0fd f83d e932 6b3e 049f 3c3e
00000040: a028 2d3e 3e61 783e a9b0 6cbd e465 9fbb
00000050: e86b 98bd ab07 3d3e 11d5 29be 5cca 9b3e
00000060: 13e0 a43c 81e8 a03e 28dd 7c3b ed0c 633d
00000070: 5380 3d3e 5cf5 123e f0e6 27bc 9249 313e
00000080: b18b 7f3e fb4f 403e cd3a 8e3d b2ad 2dbe
00000090: f95c 0dbe 292c cd3c c3a6 0e3c a076 aa3e
000000a0: 1ce6 abbd 0fef 1cbd 3d8a 1b3c c7ae 933c
000000b0: 1bc0 c23c 0419 3a3e b2a4 653e a1e6 ea3d
000000c0: 665c 683e 6f6c 863e d948 023e 6ad1 5e3e
000000d0: 85f4 d2bd 38a5 cdbd ee4d 803e 4485 44be
000000e0: 36f4 80bd cceb b3bd d017 be3c 05af 52bd
000000f0: be27 f73d 51d3 943e b5b6 d4bb 0258 5b3e
00000100: 29e5 6ebc 1a4e c8bd e053 40be 8d8f f6bb
00000110: 91cc 313e 26be e0bc 833e 2c3c bc94 b3bd
00000120: 3c5a 783e 4a34 973d ef41 d1bd 03d2 0fbc
00000130: 7943 1f3e ee28 a7bd f06c 07be 15bf f23d
00000140: 2ff4 4a3d 5177 9d3d 524d 8abd d4bc 7b3e
00000150: ccf4 16be 7621 ff3d a6c4 413e cfb8 2c3d
00000160: 8386 0b3c e76b 75be 28ac e13d f25a f23c
00000170: efab cebd c95a 12bc 226d 353d c8e2 27be
00000180: 2a6f ef3d 594b 05be 7745 e3bd 2d15 1c3d
00000190: ecf1 7d3e 243d eebc 682c 023e 494a 2a3e
000001a0: f7a2 413e 6b95 3b3e 812e 07be 6cc0 6b3e
000001b0: bae4 20be 296c 913d b2fc 903e 88aa d83d
000001c0: 0a12 233e 377b 89bc cf3d 083e aa30 4d3e
000001d0: ec7d 58bd 9cf0 763e b855 bcbd 0905 3e3e
000001e0: 4fc5 26bd 8298 1ebd 9cb5 91bd c41a ea3b
000001f0: e7ea 473e b6d8 34bd 81c7 543e 6e78 723d
-0.041302234 0.23269546 0.29592413 -0.119445294 -0.03615104 0.056986738 0.048665985 -0.10661513
-0.005345595 -0.103415474 -0.014316048 -0.12594514 0.15534271 0.12157798 0.2296864 0.18420035
0.16910028 0.24255845 -0.057785664 -0.004864441 -0.074424565 0.18459956 -0.16585185 0.30427825
0.020126378 0.31427386 0.0038583968 0.05543225 0.18505983 0.1435141 -0.010247931 0.17313221
0.24955632 0.1878051 0.06944809 -0.16960791 -0.13804998 0.025045471 0.008706751 0.3329363
-0.08393499 -0.03831392 0.009493408 0.018027676 0.023773244 0.18173605 0.22426108 0.1146977
0.22691497 0.26254603 0.12723102 0.21759573 -0.10300545 -0.100412786 0.25059456 -0.19191462
-0.062965795 -0.08785209 0.023204714 -0.051436443 0.12068127 0.29067472 -0.006491507 0.21420291
-0.014581003 -0.09780522 -0.18781996 -0.007524437 0.17363192 -0.02743442 0.010512951 -0.08768603
0.24253172 0.0738302 -0.10217654 -0.008778098 0.15553083 -0.081621036 -0.1322515 0.11852852
0.049549278 0.076887734 -0.06753029 0.24583751 -0.1474182 0.12457554 0.18922672 0.042168435
0.008515957 -0.23966943 0.11019164 0.029584382 -0.100913875 -0.008932778 0.04429353 -0.16395104
0.11691125 -0.13017024 -0.11097234 0.038106132 0.24799317 -0.029081888 0.12712252 0.166299
0.18909822 0.18318717 -0.13201334 0.23022622 -0.15712252 0.07100708 0.2831779 0.10579401
0.1592485 -0.016782386 0.13304828 0.20038095 -0.052854463 0.24115223 -0.09196037 0.18556608
-0.040715512 -0.03871966 -0.07114717 0.007144304 0.19523202 -0.044151984 0.2077923 0.059196882

layers.layer_1.weight f4 [128, 128]
00000000: 7dd2 c4bd 6346 f03d ea19 d83c 28cd c73c
00000010: 86b2 363e fb98 29bb 070a dd3c 4b55 cbbd
00000020: ace7 4b3d 93c3 2b3c d41d 15be 1950 a93d
00000030: 8922 343b 3e7f a53d 2ef9 d93d 395e b6bd
00000040: aec5 703d 5cdc f3bb 7255 1b39 5707 d53d
00000050: 150b c939 7be2 923d 70e8 403e 19f9 143e
00000060: 1b85 a23d 47ae d53d 56a2 c43c 1234 3a3d
00000070: d26e 163a c5b0 4cbc a78b 993d b8fe 99bc
00000080: e5a8 193d 6304 a7bc 1cf1 063e 49a4 29bc
00000090: 04ee 60bd aa17 943c 808d afbd ee5f 743d
000000a0: f45f 423d e061 b63c 802b b7bb 7aaa 4dbd
000000b0: 162a 203c 492b ea3c f2fc 96bd 1b4e 0a3d
000000c0: 3b4d 573d 5d9c ed3c 1810 54bd 7bc1 0a3e
000000d0: 572d f63c 6b07 f43c 6e96 0c3e 8e1f cd3d
000000e0: e1c7 b33d 20ad fa3d d3ac 543c 1402 af3d
000000f0: dd86 603d 785c 0c3d 7472 ecbb 0969 57bd
00000100: 0cae 27bd a067 313c 2d5b 0f3e 8aea d0bc
00000110: 3c5d d03d bdb3 063e 3b13 39bd 1cb8 563d
00000120: 17c8 19bc 95ce 55bb b043 5ebe 9596 8cbd
00000130: 0ca4 433d d836 893d 83ca 8a3d e404 10be
00000140: a9f8 703d 40d4 ceba 72eb 4b3d f639 7b38
00000150: e8a1 b13c 7342 0bbe 1c34 c6bd f45c 213d
00000160: 0304 a53c a77e 8b3d d6dc bc3d 9713 673d
00000170: a56c 643d 5abb 2ebe 7b6c 0a3d 5b07 a33d
00000180: 7d9a 84bd 2946 7bbd 9d78 a6bd 806e 163e
00000190: 5053 e33c 7132 28bd 7240 873d 28f8 f53c
000001a0: 21c3 d6bd 78aa 1a3d f90e 413d 0115 f33c
000001b0: 61d7 cc3a da19 87bd 0eb2 bc3d 7b09 8d3c
000001c0: 46d8 683d fba5 003d 691b de3c 5087 083e
000001d0: dab1 063c 2f62 17bc 1b6c 6ebd d55d a63d
000001e0: d3de da3d 3951 8ebd c95e 283d 013d d53b
000001f0: cde1 82bd f762 91bc fc1c 34bd eb9a f33d
00000200: 6eda 293c 242e 1dbd b00a 083c 8fda f23d
00000210: c5b5 e1bb f6ec 9b3d 2ca5 aaba 8845 29bd
00000220: 926a 893d e311 f13c f73f 283d ef2e 2c3d
00000230: 4a0b 39bd 9669 b1bd 6869 cf3c bcc1 2bbd
00000240: c208 80bd 1f1c 13bd 8b1d 9abd c8c4 193c
00000250: b00c 343d 8e1a c5bb 80d9 443d df93 4d3c
00000260: 0a4b 5fbd 26fa 00bd 2e6c 5dbc e3c7 47bd
00000270: c853 90bc a78d 47bd bc77 6ebd c8b4 9fba
00000280: fd5d 50bc 3405 83bd 8b54 423b 0917 8f3d
00000290: 3ffa 94bd 6057 9cbd 1376 0abd 2f6e bc3b
000002a0: 3a89 6c3d 4c13 903d 4c1a 753d cd4d 87bd
000002b0: ef75 be3d b3a4 83bd cda1 273c 8883 a13d
000002c0: ed18 2d3d b92d 7d3d 7e0f 813d 9854 ceba
000002d0: 0f09 e33c e2af bcbb 1a1a 14bc 508b 683b
000002e0: 0e92 45bd dc61 11be acf4 ed3b d79b 83bd
000002f0: 29e5 5f3d 6f63 87bd 5ef1 7dbd 1625 543d
00000300: 84ce b5bc 9c7d 07bd c7e5 92bd 3427 993d
00000310: 5cec 2d3c db00 833d 5285 b0bd 5794 b6bc
00000320: 9c6e 953d 4809 443c 3e18 053e b176 da3d
00000330: 540d 633d 6b02 043e 1cdf 59bd cddc 923d
00000340: 04f3 aabd 1ff6 d2bc 1f72 b8bd 00c5 d53d
00000350: a3c2 523d bc8e 593d 60e6 c6bc ec43 033c
00000360: a697 8f3d 3ab6 2fbe 7673 1a3c 3865 21bd
00000370: d5ed d23d e4b5 c63d a5ce a7bc 02ef db3c
00000380: 455a 70bd 5236 ea3c 617b ce3d a440 08bc
00000390: bb1e bb3c 4f89 943d 9ec5 d3bc 266a 543d
000003a0: 1597 ec3b 17a2 553d 7412 a53d f44a a83d
000003b0: 6837 3bba a60c 21bd 83ec 8fbd 56ae 19bd
000003c0: 5485 bbbd d6bf 89bd cdc8 7b3d 2a85 7bbc
000003d0: efde 063a 7ce0 963d 52fd 853d 3680 d03c
000003e0: 5bdf a7bd 9a52 90bc 3ff5 f83c 3f89 92bd
000003f0: 3a32 18bd 4cea 53bd f551 953d 9793 113d
-0.0961046 0.11732175 0.026379544 0.024389818 0.17841539 -0.0025878537 0.02698232 -0.09928378
0.049781486 0.01048364 -0.1456216 0.082672305 0.0027486405 0.0808091 0.106432304 -0.0890469
0.058782272 -0.0074420404 0.00014813783 0.104017906 0.00038345964 0.07172104 0.18838668 0.14548148
0.07935544 0.104336314 0.024003189 0.045459814 0.00057385594 -0.012493317 0.0749734 -0.018798217
0.037514586 -0.020387834 0.13177913 -0.01035411 -0.05491449 0.01807769 -0.08571911 0.0596618
0.04745479 0.022263467 -0.0055899024 -0.050211407 0.009775659 0.028585093 -0.07372464 0.033765893
0.052563887 0.029005224 -0.05177316 0.1355037 0.030050917 0.029788693 0.1372926 0.10015784
0.08778358 0.12240052 0.012980658 0.08545318 0.054816116 0.034267873 -0.0072157923 -0.052590404
-0.04093747 0.010827929 0.13999625 -0.025502462 0.10174033 0.13154502 -0.045184355 0.052421674
-0.009386084 -0.0032624353 -0.21705508 -0.06864659 0.04776387 0.06699914 0.06776907 -0.14064366
0.05883089 -0.0015779808 0.049785085 5.9897044e-05 0.021683648 -0.13599567 -0.09677908 0.039395288
0.020143514 0.068112664 0.092218086 0.056415167 0.055767674 -0.17063656 0.03379486 0.07960387
-0.06474779 -0.061346207 -0.08128474 0.1469059 0.027749687 -0.04106373 0.06604089 0.030025557
-0.10486437 0.037760228 0.04713342 0.029673101 0.0015628153 -0.06596728 0.09213649 0.017216435
0.05684688 0.03140829 0.02711268 0.13332868 0.008221114 -0.009239717 -0.058208566 0.08123366
0.106870316 -0.06949086 0.04110602 0.0065075164 -0.06390724 -0.017747385 -0.043972954 0.11894783
0.010367019 -0.03837408 0.008303329 0.11858093 -0.0068881237 0.07613556 -0.0013019196 -0.041326076
0.0670978 0.029427474 0.041076627 0.042036947 -0.04517678 -0.08662717 0.025318816 -0.041932806
-0.062516704 -0.03591549 -0.07525166 0.009385295 0.043957412 -0.0060151285 0.048058987 0.012547462
-0.054514922 -0.03148856 -0.013514562 -0.04877461 -0.017618075 -0.048719075 -0.058219656 -0.0012184614
-0.012717721 -0.06397477 0.0029652442 0.069868155 -0.07274293 -0.07633853 -0.03380401 0.0057504396
0.057748057 0.070349306 0.05983953 -0.06606636 0.09299838 -0.06427898 0.010231447 0.07886416
0.0422601 0.061811183 0.06301783 -0.0015741764 0.02771428 -0.0057582716 -0.009039426 0.0035483427
-0.04823499 -0.14197487 0.007261833 -0.064262085 0.054661904 -0.06610762 -0.061997764 0.05179318
-0.0221932 -0.033078775 -0.07172733 0.074781805 0.0106154345 0.063966475 -0.08619179 -0.02228753
0.07296488 0.011965103 0.12997529 0.1066717 0.055432633 0.12891547 -0.05319129 0.07171021
-0.08347133 -0.025752125 -0.09006142 0.104379654 0.05145515 0.053114638 -0.024279773 0.008011799
0.070113465 -0.17159358 0.009426942 -0.03940317 0.10299269 0.09702662 -0.020484278 0.026847366
-0.058679838 0.028590355 0.100821264 -0.008316193 0.022841802 0.07252752 -0.025851067 0.051859044
0.007220159 0.052156534 0.0806016 0.08217421 -0.000714174 -0.039318703 -0.07027533 -0.037519775
-0.0915629 -0.06726043 0.061470795 -0.015351573 0.0005144914 0.07367036 0.06542458 0.02545176
-0.081968985 -0.017617512 0.03039038 -0.07155084 -0.037157275 -0.051737115 0.07291023 0.035541143

layers.layer_1.bias f4 [128]
00000000: d501 cdbc d84c bf3d adff b9bd 2ae7 32bd
00000010: 9fc5 433d 8380 b83d e047 c23d bb08 da3d
00000020: 30b0 f43b f221 5f3d 1657 593d 652c ba3d
00000030: 65d3 3a3d 6eee 923d 5402 8a3d dab9 8f3d
00000040: 5cc2 e43a 6a92 813c b2cd 17be 5ad5 8f3d
00000050: 8aaf 123d d520 d13b bc88 f73d b240 49bc
00000060: 837f b53d 6f94 8f3d 2229 9bbd 61d5 ec3d
00000070: b629 0ebd a36b fd3c 451b c43d de23 bd3d
00000080: 93c7 993d a8fa a2bb 4bdb 4bbd aa08 673c
00000090: 6640 413d d424 be3d ef00 603d 03ab ec3d
000000a0: 75a9 0fbd 4fed a3bc d4df 99bb e6f9 d6bc
000000b0: ea2c 2a3c 249c f43d 7e5a 543d 26fd d83b
000000c0: 0939 94bd 142a 4a3d 7709 823d 1126 95bd
000000d0: d65e 553c 2dc0 f8bc a357 d5bd 32e5 e03c
000000e0: fa24 d13d e769 e7bd 5df1 223d c47b 82bd
000000f0: 28f5 71bc 9e9e 803b 59ee ee3d a891 f23c
00000100: 8c8f 3bbb 1311 b93d 9309 80bd bae9 d73d
00000110: 28db b9ba ff56 03bd eb32 f23c 5f82 9fbc
00000120: b8e7 7e3d 4629 08bc eab5 5abd 7b11 ea3d
00000130: 8c09 163d 5796 87bd abd3 0a3d af93 d83c
00000140: 448d b93d 2944 a6bc cd84 56bb 92b3 80bb
00000150: b9a9 55bd b37a febb 0f11 f1bc b78d 523c
00000160: 1dea 183b e82c 46bd b58f 26bd 0aa1 b6bc
00000170: 7fbf 3b3d ac99 dcbb 0c25 09bd ab73 963d
00000180: 4e88 263d 49e8 9dbd 0c79 0a3d ffca 5dbd
00000190: 2536 2cbd d89a d23c 919b 8a3c 3136 743c
000001a0: 5482 06bd 8775 43bd 33f5 91bd 86b3 a83d
000001b0: 8da7 b53a 0731 94bd d196 163d d4df b93d
000001c0: d726 54bd 2712 ac3d 8876 f9bc 19e4 d2bb
000001d0: 6847 77bd 475d 1b3d c93b 1cbd e70b 4b3c
000001e0: 5b45 a23d 175a 103d f399 e2bb bf58 763d
000001f0: d66d ff3d ecba 7d3d 30ce 84bd 84d4 c7bc
-0.025025288 0.09340829 -0.090819694 -0.043677486 0.047795888 0.09008887 0.09486365 0.106461965
0.0074672922 0.054475732 0.053061567 0.09090499 0.045611758 0.07174383 0.06738725 0.0701787
0.0017452943 0.015816886 -0.1482456 0.070231155 0.03581194 0.0063820877 0.12086627 -0.012283491
0.088622116 0.07010733 -0.07576205 0.11564136 -0.034707747 0.030935114 0.09575514 0.09235357
0.07508769 -0.004973728 -0.04976968 0.014101187 0.047180556 0.09284368 0.05468839 0.115560554
-0.035073716 -0.020010618 -0.004695872 -0.026242208 0.010386685 0.11943844 0.051844113 0.0066219745
-0.07237441 0.049356535 0.063494615 -0.07282651 0.013023099 -0.030365074 -0.10417106 0.027453039
0.10212131 -0.11299496 0.039780963 -0.06371263 -0.014767922 0.0039251586 0.11666555 0.02961047
-0.0028619496 0.0903646 -0.06251826 0.10542627 -0.0014179694 -0.032065388 0.029565295 -0.019471345
0.062232703 -0.008310622 -0.053396143 0.114291154 0.0366302 -0.06620472 0.03389327 0.026437609
0.090601474 -0.020296173 -0.0032732964 -0.0039276564 -0.052163813 -0.0077660917 -0.02942708 0.01285117
0.0023332902 -0.04838267 -0.040664393 -0.022293586 0.04583692 -0.0067321863 -0.033482596 0.07346281
0.040657334 -0.077103205 0.033806846 -0.05414867 -0.042043824 0.0257086 0.016919883 0.014905498
-0.032839134 -0.047719505 -0.07126846 0.082373664 0.0013859138 -0.07235914 0.036764923 0.09075895
-0.051794853 0.084019 -0.030452028 -0.0064358828 -0.060370833 0.037930753 -0.038142953 0.012392974
0.07923385 0.035242166 -0.006915325 0.06014323 0.124721214 0.06194584 -0.0648464 -0.024393328

layers.layer_2.weight f4 [128, 128]
00000000: cd7c 543d 9db4 7cbd 9a30 b23d 0eb4 983d
00000010: 6eba 013d 597c 8e3d 0bd6 a73d 5a77 f73c
00000020: 22e3 b63c 333c 23bd 3846 aabc 8252 06bd
00000030: e174 26bd 6047 e83d b463 9ebc f841 fe3b
00000040: af5a f2bb 59a5 16bf d580 b23e 5e1c 7fbd
00000050: 40a0 923d 2632 7e3d f143 6f3c 2099 963d
00000060: 2b49 953d feaa 3dbd c7f6 bd3d b2ca c03d
00000070: fbfe bfbd 3e93 733d 15c2 d53c fc9c b7bb
00000080: 60dc 0cbd af59 efbc c9bf f2bb f993 be3d
00000090: 707c a8bc 0601 58bd d08a cb3d dfb9 dd3c
000000a0: 1700 c63c 8204 c5bd 6056 6ebd 3a3e 50bd
000000b0: 572e 48bd f900 63bd 94cf 38bc 3da4 9abd
000000c0: 1769 37bd 708b 333c a8bd b23d 8cc8 033e
000000d0: ba41 9fbd 02c2 a33d fb98 74be 5b49 67bd
000000e0: 9261 8e3d 48cd ea3e 0d4d d23d 1a1e 2b3d
000000f0: 03d5 923b 8b88 23bd aab2 693d dc22 9dbd
00000100: ee3c 8fbd 5b07 99bd 9d87 823c eebd 4f3d
00000110: 8e73 e03d 6157 443d 0d36 a53d 07c2 febc
00000120: 5769 27bd 7abb 41bd 9c1b b03c 5d9c 3c3d
00000130: 6525 d93d aed8 96bc ee37 ef3d f9a4 ae3d
00000140: 611e 533c 21bf 47bd cc07 983d f9a6 e1bc
00000150: c16a 65bc a4a7 b53d 1d38 313c a16e b4bd
00000160: f34c 9d3d 3655 42bd f440 ae3d d889 79bd
00000170: 5259 00bc 4348 a83d b9ee 823d 3b3a a83d
00000180: 46ec 3b3d 7317 193f 36d0 093d d550 323d
00000190: 320b a03c 39dd ab3c c04a 2b3d 58ff 85bd
000001a0: be65 a9bc 7c3d d43c d50d 0c3e 363f 9e3d
000001b0: 46e4 d13d 453d ca3c 33c8 12bd ade9 a9bc
000001c0: 1c3b 24bd a72e 993d 8bf5 9fba b8c1 b33b
000001d0: 9a82 a23b 133b 29bd f157 4a3d 061e c73b
000001e0: aeb1 8b3c fd3f 1d3d 9176 b73c 0315 1b3d
000001f0: 29cb 163d 3f94 f13d b868 5abd 1805 a9bd
00000200: d200 173d 9cf1 40bd 0549 87be 26c3 703d
00000210: b743 9c3d 45f1 5d38 10a3 dd3a bf74 83bd
00000220: 216c 97bc b490 813d 47d6 5ebd 029e c8bd
00000230: 620b fd3c e85a 1e3d 7413 303e 9965 aa3c
00000240: 2308 093d f595 b93e 9685 adbe 9151 d13c
00000250: 3f2a 1abd 25a2 95bc 6229 ecbc ea84 383d
00000260: c2fe 8bbd b4d2 963d 1f42 793d 7f37 8d3d
00000270: a0f3 723d b5d2 11bc 4967 4bbd e6c7 bdbc
00000280: 6c88 a5bd 56cc 8d3c 04b0 5f3e b1fa 19bd
00000290: 2128 c4bc 4c3c 5dbd f23f b03c e86a 80bc
000002a0: cad8 c73d bbe6 fc3d 9489 b3bb e76c e0bd
000002b0: 62f0 38bd a10c 04bd 9001 083d 1ba5 0fbd
000002c0: d7db e23d e2bc a0bc 1e67 3e3d 6ab1 8ebc
000002d0: c325 843d 64ec 983c 7ccd 6a3e ce44 22be
000002e0: 2b1e d2bc ff05 dfbe 3cac 85b9 6d3c 1f3e
000002f0: 9859 cb3d 649b 2d3c 830d c03c 6433 eb3d
00000300: e7fd 623d 9022 323d 40f4 89bd cbbc fabc
00000310: 6b46 1bbd 2927 0abd ac2b 993d 75be 713d
00000320: 7648 1fbd 2ece 413c be5b d8bd bcab 76bc
00000330: b783 563c c451 843d bb6f c8bc 46b2 59bd
00000340: ce4a 783d fc93 a9bd 523b 62bc 4c41 f93a
00000350: 13c9 82bd f1e4 0a3e 90a7 e73c 9351 f33d
00000360: 64ec 79bd 56bf 88bc 573e 183d 7404 133e
00000370: 000f b3bd 9c0b e6bd 788e 953d 8d7b 6abd
00000380: 44d1 19bd 3008 85be 4b7a ab3b 2dd4 2e3e
00000390: 1414 30bb cb01 89bd e8f8 e03c 43c5 eb3d
000003a0: c93d a9bd 51c2 7f3c a9d7 71bd 9aee a7bd
000003b0: f4e6 863d 9b5a e6ba 6ccf 383e 55ee 1b3d
000003c0: 4b64 973d 3166 4fbd 11ed 4b3d 2b80 983d
000003d0: 31e7 a33c 5738 993d f2d1 ca3d e6c2 c2bd
000003e0: 5def 1ebc f050 283d 7f55 c7bb 05cb 98bc
000003f0: 5744 7c3d fd6c 8bbd cb7c a23d 2be5 583a
0.05187683 -0.061695684 0.08700676 0.07456218 0.031671934 0.06957311 0.08195122 0.030208278
0.022325102 -0.039852332 -0.020785436 -0.03279353 -0.04063881 0.11341739 -0.019334652 0.007759329
-0.0073960642 -0.5884605 0.34863916 -0.062282912 0.071594715 0.062059544 0.014603601 0.07353425
0.07289346 -0.04630565 0.09275585 0.09413661 -0.093748055 0.059466593 0.026093522 -0.005603431
-0.034389853 -0.02921757 -0.0074081165 0.09305567 -0.020567149 -0.05273535 0.09938586 0.02706617
0.024169965 -0.096200004 -0.058187842 -0.050840594 -0.048872318 -0.05542085 -0.011279959 -0.07550857
-0.044777956 0.010958537 0.0872758 0.12869471 -0.07776208 0.079959884 -0.23886482 -0.05646644
0.06952204 0.45859742 0.102686025 0.041776754 0.0044809594 -0.03992514 0.057055153 -0.076726645
-0.06994043 -0.07472106 0.015933806 0.05071824 0.1095954 0.047934894 0.0806695 -0.031098379
-0.040871944 -0.047297932 0.02149754 0.046047557 0.106028356 -0.018413868 0.116805896 0.0852756
0.012885661 -0.04876626 0.07423362 -0.02754544 -0.014002503 0.088698655 0.010816601 -0.08810163
0.076806925 -0.047444545 0.085084826 -0.060922474 -0.007833796 0.08216908 0.06393189 0.082142316
0.045879625 0.59801406 0.03364583 0.04353412 0.019536588 0.02097951 0.041819334 -0.065428436
-0.020678397 0.025908224 0.13677152 0.077269 0.10248618 0.024687419 -0.035835456 -0.020741308
-0.040095434 0.07479601 -0.0012203915 0.0054857396 0.0049594166 -0.041316103 0.049400274 0.006076577
0.017052498 0.038391102 0.022395404 0.037861835 0.036814842 0.11795854 -0.053322524 -0.08252925
0.036866017 -0.047105417 -0.26422897 0.058779858 0.07630103 5.2915206e-05 0.0016909558 -0.06418752
-0.018484177 0.06326428 -0.05440357 -0.097957626 0.030889217 0.038660914 0.17194921 0.020800399
0.033455025 0.3624722 -0.3389098 0.02555159 -0.037637945 -0.018265793 -0.028828327 0.04504863
-0.068357006 0.07364407 0.060854074 0.06895351 0.05931437 -0.008900334 -0.049659047 -0.023166608
-0.08082661 0.017309349 0.21844488 -0.037592594 -0.023944916 -0.05401258 0.021514867 -0.015675977
0.09758146 0.12348696 -0.005479047 -0.109582715 -0.045151122 -0.032238606 0.033204615 -0.035069566
0.110770874 -0.019621316 0.04648506 -0.017418582 0.06452515 0.018667407 0.22929949 -0.1584656
-0.02564915 -0.43559262 -0.0002549606 0.15550394 0.09929198 0.01059613 0.023443943 0.11484411
0.05541792 0.043489993 -0.0673604 -0.030607602 -0.037908953 -0.033728752 0.07479033 0.059019525
-0.038887464 0.011828942 -0.105643734 -0.015055593 0.013092927 0.06460908 -0.02446734 -0.05314853
0.060618214 -0.08280179 -0.013808088 0.0019016652 -0.06386008 0.13563897 0.028278142 0.118807934
-0.061016455 -0.016692799 0.037168827 0.14357167 -0.087430954 -0.11232683 0.073025644 -0.057246733
-0.037553087 -0.2598281 0.0052330843 0.17073126 -0.0026867436 -0.06689795 0.027462438 0.11512234
-0.08263738 0.0156102935 -0.05904356 -0.081998065 0.065870196 -0.001757461 0.18047875 0.038069088
0.07392176 -0.050634567 0.04978663 0.07446321 0.020007702 0.07481449 0.09903325 -0.0950983
-0.009700623 0.041092813 -0.00608319 -0.018651495 0.06158861 -0.06807897 0.079339586 0.0008273895

layers.layer_2.bias f4 [128]
00000000: 33ef 81bd 6837 933d 8b9f f63c 8852 34bc
00000010: 6a00 edbc ec12 043d 7fac 38bd ade0 453c
00000020: 5c08 163b fa0c 923d b673 1e3b 6b65 9bbd
00000030: 3e9c d23c e9c2 9dbc a7ed 38bc 4e90 da3d
00000040: ac5b 8d3d 6da3 e23c 52b7 b4bd 0f39 9b3c
00000050: 94f7 b63d d4ac 803b e052 833d ed67 3f3d
00000060: 5ce8 31bc 891b 713c 703f 8f3c c3d5 833d
00000070: 3dc8 4bbc 604b a1bc d476 aa3d 24b7 323d
00000080: 8c94 5cbd afed f7bc f2e7 d73d 9c01 003d
00000090: 8789 b03d 6c8a 9dbd 91ef 8f3d 8bff a43c
000000a0: c431 8c3d 5052 8cbb 8d58 abbd 07f1 763d
000000b0: cb9d 0dbc 52e0 f93a 7ddc 2dbd 8d0e 05bc
000000c0: e9bf 02bd 9b4c 983c c68b a93d 7ee8 873d
000000d0: ebbc 3e3d c174 cdbc 6fe8 bb3d cb8a b33d
000000e0: 32ed 0cbd 3d08 a1bd e179 f13c bc7f ee3d
000000f0: db81 9c3d eeb7 433c 1c56 cebc edc1 b13d
00000100: 042f dc3c 8ed0 d1bb 485a 33bc d97a a03d
00000110: 3cc5 d93c 5d3e ab3c 373e 48bd 16b3 55bd
00000120: 5b9c 8a3d 8983 34bd 3e96 953d f79b 4dbd
00000130: a0ad ca3d 4e7e 66bd f03f a13d 1d8e 01bd
00000140: a748 34bd 6afe c63d f7ea 8f3d 3cb0 99bd
00000150: a0b0 90bd fc8a 2b3d d21b 85bd e93f 183d
00000160: cc8e b83d 7f43 d1bc f57a f8bc 4551 d33c
00000170: 86d5 f33c 8405 76bd acf7 0abe b20a aabc
00000180: 61bd d8bc aae2 3dbd 5b83 34bd 6544 3dbd
00000190: 807a 8e3d fcee 863d bbdd 7b3c 07e9 9bbd
000001a0: 1f24 973d 0439 0bbc 278e 35bc 4e80 553d
000001b0: 3de8 cfbd 5ebe b03d 5ae6 82bd a761 8c3d
000001c0: 1cba 4bbc 6a66 9dbd c654 a0bc 1e30 20bd
000001d0: cb92 a33d 1b63 363d f182 943c 4e3e 513c
000001e0: f104 5a3b cd75 39bd 357b 81bd 80a3 b1bd
000001f0: ed42 1f3d fb65 693d 0fb3 7b3d bc77 a63d
-0.06344452 0.07188302 0.030105373 -0.011006005 -0.028930862 0.032244608 -0.04508638 0.012077493
0.0022893166 0.07131381 0.0024177856 -0.07587703 0.025709268 -0.01925798 -0.0112871295 0.10672055
0.06902251 0.027665818 -0.08824028 0.018948106 0.089339405 0.0039268527 0.064122915 0.04672997
-0.010858621 0.014716038 0.017486304 0.06437256 -0.012437877 -0.019689262 0.08323446 0.043631688
-0.053852603 -0.030264704 0.10542287 0.031251535 0.08619981 -0.076924175 0.070281155 0.020141384
0.068454295 -0.0042822734 -0.08366499 0.060288455 -0.008643578 0.0019064045 -0.042446602 -0.008121145
-0.0319213 0.018591216 0.08278613 0.06636141 0.046566885 -0.025080087 0.091751926 0.08766707
-0.034405895 -0.078628995 0.029477062 0.11645457 0.076419555 0.011945708 -0.025187545 0.086795665
0.026877888 -0.0064030355 -0.010946818 0.07835931 0.026583306 0.02090376 -0.048887458 -0.052172743
0.06768104 -0.044070754 0.07304047 -0.050197568 0.098963976 -0.056272797 0.07873523 -0.03162967
-0.0440146 0.097164944 0.07027238 -0.07504317 -0.070649385 0.041880593 -0.06499447 0.037170324
0.09011611 -0.02554488 -0.030332068 0.025795588 0.029764902 -0.060063854 -0.13571042 -0.020757053
-0.02645749 -0.04635874 -0.044070583 -0.046207804 0.06956959 0.065885514 0.015372689 -0.07612806
0.073799364 -0.00849748 -0.011081255 0.052124314 -0.10151718 0.0863006 -0.06391592 0.06854563
-0.012434509 -0.076855496 -0.019571673 -0.039108388 0.07986983 0.044528108 0.018128844 0.012771202
0.0033267105 -0.04527836 -0.06322328 -0.08673763 0.038882185 0.05698202 0.06145006 0.08128306

layers.layer_3.weight f4 [128, 128]
00000000: d49f b4bd 23f7 cd3d d5ad 2b3e 6308 34bb
00000010: aa63 0e3e 77c9 2bbe f191 9dbc 524a 323e
00000020: fb5d 18be b6c7 aebd 4829 963d 0ed4 a93d
00000030: eb94 09bc e1f5 41bd be70 683c 1bbc e6bd
00000040: 42df 50bd a70c 353d ee09 2f3d be59 fbbc
00000050: 5b3b 01bd fb7d dbbd d9f1 353d 86f0 063d
00000060: b960 293d fd5f cb3d a458 2a3e 9dd9 2dbe
00000070: 3757 8dbd 2d34 023a 39b3 68ba a24e a93d
00000080: 3057 083e 7e1e 21bc 31cf 683b d568 313e
00000090: 7c82 afbd 1ced 433e a1c5 17bb da6c 1dbe
000000a0: 3ec7 94bc a3c3 cf3d 1eca d73d a6b2 0a3e
000000b0: 6085 d3bc f66e f8bb 2207 08bd 7ccb 02be
000000c0: e3eb d4bc 1a44 19bd a173 483c fdad 2b3e
000000d0: 411c 83bb a567 5dbe 760d a53d d4c7 26be
000000e0: 14e8 e63c 330e e0bd 50a2 88bc 405b 21be
000000f0: 9a0a 123d bd4a 813e af94 3dbd 2583 5f3e
00000100: 0ebf 9bbd 3bf0 b4bc a9a2 d7bd fe21 d1bc
00000110: 8236 f53d 7d57 543e abbd 883e c793 0dbe
00000120: 0d3b dfbb d855 3fbe 506b 07ba efbc e13d
00000130: 07b6 513d 3927 96bb 7a55 5abc 4c3b 65bd
00000140: 5d9e b63c 2572 fb3d d9c2 55bd 0eb7 2a3b
00000150: 354b 31bc 36d0 013d a367 e5bc 369a 063d
00000160: 7c77 1f3e ee06 0cbd 52de 303d 26f5 67bd
00000170: 9ad1 89bd f292 d83d e3ab 073f fa9e 17bf
00000180: d916 1fbe 6253 8dbc bc68 263c b14d ebbd
00000190: 49e0 8dbd c661 853d c1d0 02bd a4e5 bd3e
000001a0: 2a22 81bc 0de6 b5be 5d19 043e 5dc9 7b3c
000001b0: 45de 06bc 3e68 debd 49ce 843c 8367 ac3c
000001c0: 3a8b 7a3c 0bf8 eb3d 6055 1bbe eab7 733d
000001d0: 337d c13d eb44 1a3e ab5f 5abb af62 273b
000001e0: 20ef f33c e299 99bc ac98 543d f804 ac3d
000001f0: 462b a33d e44b 38be 8071 df3d d912 95bd
00000200: 84d9 5f3c 4d12 a1bc d3f5 0cbe 9c99 c2bd
00000210: b994 a83e 615a 983d 89e9 73be ca6b dfbc
00000220: c050 debd 183a 9dbd 14c7 1fbe e946 8abd
00000230: 71bc abbc 1ca6 173c e09a bd3d 4d6e 883c
00000240: c456 23be 97ab d8bd 3ffb 5f3d b11f 2a3e
00000250: 0f23 743c 6630 c3bb fe8a 513d c676 e03b
00000260: 6bab c53d b008 c73d 64c7 18bd c6ba 1cbc
00000270: ad46 423d c245 453d a660 19ba f514 cfbd
00000280: 227a 7fbb 5598 303d 4727 193a 6a64 eabd
00000290: 2b6a 893d 39e0 30bd 7aeb c6bd 5482 9abb
000002a0: d0a8 27be c1b8 433e 597d 963c e932 56bd
000002b0: f86f 4e3d 167f d53b cd62 6cbd 2a6c 563d
000002c0: d8a2 513d a5a1 9b3d 2ee7 4cbd 622c fd3c
000002d0: 5634 13bd 499e 13bd 289e a53d 8f11 2abe
000002e0: d29b 593c b1f1 89bc b1ad 80ba 0140 91bd
000002f0: faca a73d aa44 943d b2a9 043e 9f66 1c3e
00000300: e7aa fd3c 7c9b ee3d 7c5a 82bb 8ad5 de3d
00000310: 1c19 1dbe 3e52 e03e d55b 5cbd dc98 a5bd
00000320: 6359 8e3d 01a3 abbd 037e 13be 8b8e a5bc
00000330: 6aa7 02be 0940 6dbb 086d 383d a334 d83c
00000340: 1f89 8e3d dd07 273e 70b2 7cbd db63 b43d
00000350: b4ca b5bb 5be7 d53b 6840 953d a4e5 ea3c
00000360: 0aaf 0e3e 76ad 0fbe 56e1 ae3d 35ba ea3d
00000370: 405d fe3d d2ef 143d 5c6b 33bf 35d1 4abc
00000380: 69e2 f3bd 9793 043e 5e36 10be 51d2 eabd
00000390: 037d adbc 6c84 44bd 33c1 a4bc c0cd 03be
000003a0: 2cb2 06bd 9b7d e23e 2881 493e c8e8 823b
000003b0: 2157 663d 34cc d93d a608 a13e 55e0 2e3d
000003c0: a7dd acbd bbcc 4e3c 1a86 09be a194 96bd
000003d0: d2d8 07bc 8d39 78bd 662a b23d 64f2 52bd
000003e0: fbc4 15be a96d 343d cdaa c0bd fee0 d73d
000003f0: a435 9c3b bbb9 2cbd 95e2 7e3d 0f09 25be
-0.08819547 0.10056903 0.1676553 -0.002747082 0.13905206 -0.16776071 -0.01923463 0.17411163
-0.148796 -0.085341856 0.073320925 0.08292399 -0.008397321 -0.04735363 0.014187036 -0.11266347
-0.050994165 0.04420152 0.04273408 -0.03068244 -0.031550746 -0.10717388 0.044420097 0.032944225
0.041352008 0.09930418 0.16635376 -0.16977544 -0.069014005 0.0004966881 -0.0008876804 0.08266951
0.1331451 -0.00983393 0.0035523886 0.17325146 -0.0856981 0.19133419 -0.0023158567 -0.15373555
-0.018161412 0.101447366 0.10536598 0.13544711 -0.025820434 -0.007581587 -0.033209927 -0.12772936
-0.025991386 -0.037418462 0.012234599 0.1676559 -0.004001171 -0.21621569 0.08059208 -0.16287166
0.028186835 -0.10940208 -0.01667896 -0.15757465 0.03565464 0.25252333 -0.046284374 0.21827371
-0.076048 -0.022087207 -0.10529072 -0.025528904 0.11973287 0.20736499 0.26707205 -0.13825904
-0.0068124593 -0.1868509 -0.0005165832 0.11022364 0.051198985 -0.0045823124 -0.013326043 -0.055964753
0.02229231 0.12277631 -0.052187774 0.002604905 -0.010821153 0.031692706 -0.02800352 0.03286191
0.15572923 -0.034186296 0.04318077 -0.056630276 -0.067294315 0.105749026 0.52996653 -0.59226954
-0.1553606 -0.017251674 0.010156807 -0.11489428 -0.069275446 0.065127894 -0.031937364 0.37089264
-0.015763361 -0.35527077 0.129003 0.015367833 -0.008231704 -0.10859726 0.016211646 0.021045452
0.015291983 0.1152192 -0.15169287 0.059501566 0.09447708 0.15065353 -0.0033321183 0.0025540998
0.02977711 -0.018750135 0.05190341 0.08399385 0.07967238 -0.179977 0.1091032 -0.072789855
0.0136627 -0.019662047 -0.1376565 -0.09501955 0.32925966 0.074391134 -0.23819555 -0.027273078
-0.108552456 -0.07677096 -0.15603286 -0.06751806 -0.02096388 0.009255912 0.09258056 0.016654158
-0.15951067 -0.10579603 0.054682966 0.16613652 0.014900937 -0.0059566973 0.051157944 0.0068500964
0.09651836 0.09718454 -0.03729953 -0.009566015 0.047430683 0.04816223 -0.00058508886 -0.10111419
-0.003898271 0.043114025 0.00058423396 -0.11444934 0.06709703 -0.043182585 -0.09712882 -0.0047152434
-0.1637299 0.19113447 0.018370317 -0.052294645 0.05039975 0.006515394 -0.05771141 0.052349247
0.05118069 0.075991906 -0.050025158 0.030904952 -0.035938583 -0.036039624 0.080868065 -0.1660826
0.013281779 -0.01683888 -0.0009817389 -0.07092286 0.081930116 0.07239659 0.12955359 0.15273522
0.030965282 0.1165075 -0.0039780717 0.10880573 -0.1534161 0.43812746 -0.053798515 -0.08085796
0.06950643 -0.083807 -0.14403538 -0.020209571 -0.12759176 -0.0036201498 0.045025855 0.026392287
0.069597475 0.16311593 -0.06169361 0.088081084 -0.0055478457 0.006527824 0.07287675 0.028673954
0.1393396 -0.14031014 0.08539073 0.114612974 0.1242013 0.036361523 -0.7008569 -0.01237898
-0.11908419 0.12946926 -0.1408324 -0.11465896 -0.021177774 -0.04797785 -0.020111656 -0.12871456
-0.03288476 0.44236454 0.19678175 0.003995035 0.056235436 0.10634652 0.3145191 0.04269441
-0.08440714 0.012622054 -0.13430062 -0.073525675 -0.00829144 -0.06060176 0.08699493 -0.051500693
-0.14625923 0.044049893 -0.09407578 0.10540961 0.0047671366 -0.042169314 0.062227804 -0.16116737

layers.layer_3.bias f4 [128]
00000000: bd55 33bd 7b2e 073d 5fe3 663d 30cf 143d
00000010: 3ed3 bebd bdb0 b3bd 8fdc 8a3d 9281 a8bc
00000020: a9ad 8e3d 0ea9 843d bcb6 b0bd e232 e0bc
00000030: 1758 88bd 2b35 713d b991 7e3d 0083 9dba
00000040: d8e8 fbbc 2517 6f3c 3a7e 4a3b 29ee f03c
00000050: 81ac 8d3c bea8 73bd 2d00 063d a941 c0bd
00000060: 2444 9f3c 019e f7bc 693d 8f3d a429 2d3d
00000070: 6f06 883c 2218 e3ba e721 94bc aaf6 21bb
00000080: 5f3d 97bd 4a4a 9cbd 57d5 d2bd e230 acbd
00000090: a052 403d eeae ff3a 39e7 98bd 22be a4bd
000000a0: b939 263d d6cc 8cbc 1f8c 513d ba4e cd39
000000b0: 0d05 943b 3e6c 96bd 7d0e ea3b b5e8 213c
000000c0: d7d3 84bd aff3 e23c 1fbb 633d 7ed9 bfbd
000000d0: 80e2 da3c 1ec8 15bd 56d3 4fbd 2e14 73bd
000000e0: 5af8 723b 825f 5e3d 0d14 213d 7c71 eb3c
000000f0: 9703 09bd 4241 e03c 3435 96bd c86d e03c
00000100: 1167 e0bd 718d fe3c 466d 0dbe 1e4b 043c
00000110: 5127 733d a99a 723d 4c65 4f3d 5dcf d7bb
00000120: a82f b5bd 4905 9e3c 2b0f 873d 1867 afbd
00000130: 605c a7bd b474 af3d bcac 8cbd 784b d1bc
00000140: 6ad4 9dbd 958b cbbc 111a ac3c 8e73 a73c
00000150: 07cb 853d 4ae0 7cbc c358 663d 11b4 9d3d
00000160: 2c7d 69bd 2ef8 40bd 6b2d b3ba 718b 013d
00000170: 3638 8dbd eb62 78bd 5a48 7ebd 0bac b6bd
00000180: 19f0 bebd bbba 1c3d 372e 86bd 2078 9fbc
00000190: 2b71 883d a254 a33d ca03 e0bd 03a6 c2bc
000001a0: 6517 95bd 801f 343d bfb1 adbc 6a16 ba3d
000001b0: 08ae d3bc f568 393d 4a65 7abd 402a 08bd
000001c0: 3aba 303d 6814 283d 3bbb bd3a 632d 89bd
000001d0: ee50 093d 4599 6abd b415 20bd 4b76 863d
000001e0: 130a 37bd 22b4 45bd 52df 7d3c bcaa bb3b
000001f0: bf6d 333c c4dd 5cbd cff1 94bc d673 013c
-0.04378294 0.03300331 0.05636918 0.036330402 -0.09317635 -0.087739445 0.067803495 -0.020569596
0.06966717 0.06477557 -0.08628604 -0.027368013 -0.06657427 0.058888596 0.06215069 -0.001201719
-0.030750677 0.01459292 0.003089799 0.029410439 0.01729417 -0.059487097 0.03271501 -0.09387524
0.019441672 -0.03022671 0.06994135 0.04227604 0.01660463 -0.0017325918 -0.018082572 -0.0024713674
-0.073847525 -0.07631357 -0.102945976 -0.08407761 0.046953797 0.0019507089 -0.07465977 -0.080440775
0.040582392 -0.017187517 0.05115902 0.00039159303 0.0045172037 -0.07344864 0.0071428404 0.009882142
-0.06485718 0.027704088 0.055598374 -0.09367655 0.026719332 -0.0365678 -0.050738655 -0.059345417
0.0037074299 0.054290302 0.039325763 0.028740637 -0.03345069 0.027374867 -0.073343664 0.027396098
-0.10957158 0.031073304 -0.13811216 0.00807455 0.059363667 0.059229527 0.050633714 -0.006585999
-0.0884698 0.01928963 0.0659469 -0.085645854 -0.08171916 0.08567181 -0.06868884 -0.025548682
-0.077065304 -0.024846831 0.021008523 0.020440843 0.06532865 -0.015434334 0.056236994 0.077003606
-0.05700414 -0.047111683 -0.0013670152 0.031627122 -0.06895487 -0.06064121 -0.06208072 -0.08919533
-0.09323139 0.038264018 -0.065517835 -0.01946646 0.0666221 0.07975127 -0.10938223 -0.023760801
-0.07279853 0.043975353 -0.02120292 0.090863064 -0.02583982 0.04526611 -0.061131753 -0.033243418
0.04314635 0.041035086 0.0014475355 -0.0669811 0.033524446 -0.057275075 -0.039083198 0.06565531
-0.044687342 -0.04826749 0.015495138 0.0057271402 0.0109514585 -0.05392243 -0.01818171 0.007901153

layers.layer_4.weight f4 [2, 128]
00000000: 8a5f cdbe 6a12 b63e 378f e93d 7c1f a83d
00000010: 6648 06be b4f9 fe3e de27 48be 1ba0 b33d
00000020: 7e6f 31be 9a16 cabe 1895 8dbe 3727 193d
00000030: af2a 13bd 56b3 55be 4a7f 103e a158 64be
00000040: 1085 c23e cdf6 31be e410 86be 5343 8c3d
00000050: 6436 73be 9124 c8bd a49d 6abd 3093 b33d
00000060: 95d0 013e d8d1 fbbe a07a b7be 4da1 37be
00000070: b6df 8d3d 1d89 8bbd 6c4f 99be 35a2 253e
00000080: 704a b8be 0b36 f13b 429a 92be 45b4 a03d
00000090: 214f 973e c15f 64be fa9e 0dbe e0d9 373e
000000a0: 6c06 643e bf07 923e 3d75 cb3d 0927 94be
000000b0: 50d4 083e cdb9 a1bd c2c9 653e 5d50 fe3d
000000c0: c8df 12be ce69 253e ca6b b03e d364 e0bd
000000d0: 8372 c13d 7630 ccbe 6411 57be da67 18bc
000000e0: 9dad 1ebe 997f 803e 419c 64be d3e4 fbbe
000000f0: eb74 063e a50c e9be 6fb5 16be d585 4fbe
00000100: 0aee ca3e 654b 15be bae0 aebe 77b3 68be
00000110: f7c1 383e 004f 813e b2ac 9e3e 98ba 833d
00000120: dd3c 503e 5022 35be 009a 4c3e 5f0f 03be
00000130: 9d4b 193f 02c2 46be 3e4f a9be 3bf7 963d
00000140: c5ce 2fbd 14cb 943d 389e 303e f5cf 7dbe
00000150: 98f8 3c3d 56d8 633e 7d44 36bd 7f1d b63e
00000160: 5be4 993d 7b15 4fbd a403 e5bd 17b7 383e
00000170: 36e0 583e 4c92 ecbe efb4 48be 2e4e de3e
00000180: 41b4 bebe 101e 43be 3322 8cbd 4545 b2be
00000190: b813 933e 4a29 a1bd 267e 063f 5c4b b03e
000001a0: 4fc2 233e e7b4 f43d 9b93 51bd 2e7b 3fbe
000001b0: fdbb cb3e bc42 b9be 2537 9f3d 2900 84be
000001c0: 1f89 813d ad23 7bbe ef82 273e e6e3 4bbd
000001d0: 7837 533e 1131 b7bd 4cd9 833c 75da 113e
000001e0: d60c 273e 2471 6bbd 1b37 af3e c3eb 43be
000001f0: f539 193e 09bc 8abe b2e6 a0be 3172 e4bc
00000200: b021 cf3e 98a4 3f3e c33d 0e3e 40db 1abe
00000210: ef2d a13e fb41 983c 7e34 aebd 762d f0bd
00000220: e841 65be b51b 1e3e 5699 ac3e 3dad 873d
00000230: d850 6a3c 72e7 ff3c 2faa e8bd 3c6a bdbd
00000240: 1111 16be a095 c2bd 62c4 9e3d ffad b23d
00000250: fe4e 743e d4a0 27be 9068 4e3e 08f2 583e
00000260: d719 e93d 72f4 23bc 5979 febc 64b2 b73d
00000270: e7de 2d3d 184b 293e dd4b 58bd 79c5 9bbe
00000280: b6e3 273e 2e8a 51bd 6dc3 07be e21e 74be
00000290: 42b0 c13d 37ab a3be 621d 18be b89b 29be
000002a0: b92a 2fbd 5e67 113e 3def 30be 5263 d0be
000002b0: 819a 1abe 754e ab3e c9d6 853e b7bf 3abe
000002c0: 2da8 d2bd 0af0 ed3b cd5f 74be d0bb 903e
000002d0: 736d b7be add4 24be 9885 8f3d 4291 d43c
000002e0: ef01 a5be af22 05be 00d8 6dbe 6b2b aa3d
000002f0: 3ff3 bc3d 1022 de3e fc57 a73e 1979 18be
00000300: 23e6 ca3d 9862 a8bd 1002 06be 4e97 453c
00000310: e7f0 12be afc7 563d 61df d7be 960c 1b3e
00000320: 8ec0 a13e d3bb 153e fd87 6fbe 9f82 1fbe
00000330: 2d4f 423f 12eb 2a3e ae49 733e 3bea aa3d
00000340: 88fd 76bd 678b 43bd d10c 213e 9ccb 753e
00000350: fe4e 85bd f77a 9cbe a672 5ebe 8ce8 933e
00000360: 73c3 f83a b81b bc3e 1973 4c3e f008 553e
00000370: a4b0 d63d 0452 be3e e9ad 6c3e 5e85 273d
00000380: d32b d93e 43be 76bd 380e 943c 0432 4a3e
00000390: 1c4d 2e3e b002 4b3e a3b2 963c e22f 4dbe
000003a0: 4796 643d 6385 83be ab4b 1d3e a5e7 1a3c
000003b0: a729 3a3e 1e99 d83d 1dc2 1cbe 36a1 86bc
000003c0: 33b2 90be 2740 8a3d 87a3 373e 1cb5 923e
000003d0: 4c40 8dbb adb6 663e ae80 a13e 1d2a 43bd
000003e0: 7c7f febd d72a 64be 904b 813e 02a6 7bbe
000003f0: cab9 163e 3c00 4a3e f77c 113f d707 6a3e
-0.40111953 0.35560924 0.11404269 0.0820913 -0.13113555 0.49799883 -0.19546458 0.08770772
-0.17327687 -0.3947037 -0.27652812 0.037390914 -0.035929378 -0.20869192 0.14111057 -0.22299434
0.37992144 -0.17379303 -0.26184762 0.068487786 -0.23751217 -0.097725995 -0.057279244 0.08768308
0.12677224 -0.49183536 -0.35835743 -0.17932625 0.06927435 -0.06813262 -0.29943407 0.16175158
-0.3599429 0.0073611788 -0.28633314 0.07846884 0.29552558 -0.22302152 -0.13830176 0.17954206
0.22268075 0.28521535 0.09934471 -0.2893603 0.13362241 -0.07896767 0.22440246 0.12417672
-0.14343178 0.16153643 0.34457237 -0.10956731 0.094456695 -0.39880723 -0.21002728 -0.009302104
-0.15495916 0.2509735 -0.22325231 -0.49198017 0.13130538 -0.4551746 -0.14717649 -0.20265897
0.39634734 -0.14579542 -0.34155828 -0.2272471 0.18042742 0.25255585 0.3099113 0.06432074
0.20335717 -0.1768887 0.19980621 -0.12798832 0.59881 -0.19409946 -0.3306827 0.07371374
-0.0429218 0.072652966 0.17247856 -0.2478636 0.046135515 0.22250494 -0.04449891 0.3556938
0.075142585 -0.050557595 -0.11182335 0.18038593 0.2117928 -0.46205366 -0.1960027 0.4341902
-0.37246898 -0.19054437 -0.068424605 -0.34818473 0.28725982 -0.078692034 0.5253624 0.34432495
0.15992092 0.11948567 -0.05116616 -0.18699333 0.3979186 -0.36183727 0.0777419 -0.25781372
0.06324982 -0.24525328 0.16358541 -0.049777888 0.20626628 -0.089449055 0.016094826 0.14243491
0.1631349 -0.057480946 0.3422173 -0.19132905 0.14963515 -0.27096584 -0.31426007 -0.027886482
0.4045539 0.18715131 0.13890748 -0.151227 0.31480357 0.01858615 -0.08506106 -0.11727421
-0.22388422 0.15440257 0.33710736 0.066248395 0.014301501 0.031238291 -0.11360585 -0.09248778
-0.14654948 -0.09501195 0.07752301 0.08724593 0.23858258 -0.16369945 0.20157075 0.21186078
0.11381882 -0.010007011 -0.031063722 0.08969572 0.042448904 0.16532552 -0.052806724 -0.30424097
0.16395459 -0.05115717 -0.13258143 -0.23839906 0.09457447 -0.31966564 -0.14854959 -0.16563308
-0.042765353 0.14199588 -0.17278762 -0.40700775 -0.15098001 0.33458295 0.2614043 -0.18237196
-0.10285983 0.007261281 -0.2386467 0.2826829 -0.3582569 -0.16096754 0.07007903 0.02594817
-0.32228038 -0.13001512 -0.23226929 0.083090626 0.09226083 0.43385363 0.32684314 -0.14889945
0.09907176 -0.0822193 -0.13086724 0.01206 -0.1434971 0.052436527 -0.42162612 0.1514152
0.3159222 0.1462243 -0.23391719 -0.15577172 0.7590206 0.16691235 0.23758575 0.08345457
-0.06030038 -0.047740366 0.15727545 0.24003452 -0.06509207 -0.30562565 -0.21723422 0.28888357
0.0018979147 0.36739898 0.19965781 0.2080419 0.1048291 0.37171948 0.23113216 0.040898673
0.42416248 -0.06024004 0.018073186 0.19745642 0.17021602 0.19825244 0.018395728 -0.20037797
0.05580738 -0.25687703 0.15360896 0.009454642 0.18179952 0.1057608 -0.15308423 -0.016434293
-0.28260955 0.06750517 0.17933474 0.286538 -0.0043106433 0.22530623 0.31543487 -0.047647584
-0.124266595 -0.22281967 0.25252962 -0.24575046 0.1471931 0.19726652 0.56831306 0.22854553

layers.layer_4.bias f4 [2]
00000000: 8518 d43a 1389 97bd
0.0016181624 -0.07399192
