models/score_model_embedded.pth (torch, 213038 bytes, 10 tensors)

layers.layer_0.weight f4 [128, 18]
-0.03727915 -0.17235203 0.1507607 0.31303516 0.10180216 -0.1977223 -0.11963814 0.1144365
-0.023645157 -0.056014072 -0.2352837 0.2686714 0.112828635 -0.2549703 -0.18393448 0.08410036
-0.007654599 -0.017745245 0.40506762 -0.31164023 0.41044164 0.121870466 -0.06774583 -0.14352041
-0.0891126 0.010092591 -0.083588146 0.033715926 -0.14749485 0.10657824 -0.1570256 0.17480691
0.09671493 0.04921523 -0.011718455 -0.0449238 -0.3956821 -0.45005247 0.33854344 0.30738062
0.1595719 0.22318582 -0.0016734627 0.17594346 -0.058301277 0.041089907 0.23334302 -0.18841758
-0.09436289 -0.18704493 0.096785925 0.044025622 -0.048413463 -0.022427717 -0.1856024 0.23678932
-0.12408475 0.0776261 -0.26184654 0.011238137 0.20027643 0.12621494 -0.028473696 -0.12310468
-0.075072505 0.123153925 0.028975215 -0.18356192 0.110417135 0.054569878 -0.20635213 -0.08582371
0.37302697 -0.12146521 0.027203826 0.3502478 -0.14613473 0.20800947 -0.040276393 0.15465248
0.092024006 -0.06956893 -0.061190233 -0.068697415 -0.024178078 0.2782582 -0.08804872 -0.0051095504
-0.082473576 -0.020218808 -0.2066285 0.5310379 -0.011447986 0.16349362 -0.028146708 -0.15068853
0.06307187 0.011338172 0.041919637 -0.0024519514 -0.061220735 -0.102392554 -0.13845243 -0.11648794
-0.020907495 0.13578154 0.13011663 0.0100251045 -0.49621236 -0.085580654 -0.4263109 0.19222353
-0.022932855 0.07258739 0.039059248 0.095855325 -0.11691379 0.042739708 0.011748608 0.031948775
-0.22798401 -0.11424333 0.069744244 0.085963614 0.045625363 0.020713283 -0.068578884 0.49683854
0.45196584 0.44368318 0.18872781 0.08327752 -0.06872666 0.03474717 0.032040592 -0.03608808
0.34611896 -0.24374583 0.03738283 -0.1653518 0.05888633 0.06571331 -0.047431163 -0.011245376
-0.105508894 -0.42271033 -0.17506263 0.2133015 0.03718238 0.09391983 0.15154603 -0.16530043
0.04153657 -0.13392343 -0.2217885 -0.1344519 -0.11144787 0.062355287 0.127235 0.073490575
-0.07404201 0.07877594 0.007795797 -0.07431229 -0.112488225 -0.26264843 -0.37971973 -0.069094606
0.016273413 0.01040917 -0.04266951 0.03230542 0.5260127 -0.12785922 0.20286067 0.28908122
0.123852395 0.027353734 0.025508216 -0.0325091 0.6252983 0.08909907 0.55618465 0.054075547
-0.08646454 -0.10773039 0.008837476 -0.022139136 0.049997553 -0.08006808 0.013501577 0.11022503
-0.071646236 -0.0727269 -0.004193601 -0.08059296 -0.017583737 -0.057696227 0.41089466 -0.13851663
0.12512937 0.1025973 -0.010695892 -0.123654276 -0.04442954 -0.04941652 -0.018943723 -0.12253996
-0.033917077 -0.01708838 -0.24283493 -0.07087214 0.026181756 0.006826462 -0.067888565 -0.034047782
-0.37493062 0.41899195 -0.14250937 0.025770612 -0.07754113 0.076619454 -0.1335538 0.12435009
-0.09139314 0.010764481 0.06981532 -0.34482884 0.13999711 0.11334949 -0.13293822 0.061733697
-0.11826956 0.012836525 0.41572 -0.06274625 -0.12850489 0.0033022244 0.19283143 -0.18722397
-0.10712281 0.17155425 -0.16234621 0.12993373 -0.1859254 0.067275256 -0.27535337 -0.23720615
-0.053824123 0.083655775 -0.006159146 0.16238244 -0.065443546 -0.36702755 0.31229374 0.067997776
00000000: 06b2 18bd 0d7d 30be 0361 1a3e 2546 a03e
00000010: a77d d03d b777 4abe d704 f5bd af5d ea3d
00000020: 7db3 c1bc 036f 65bd 36ee 70be 4c8f 893e
00000030: b312 e73d 788b 82be 5259 3cbe cf3c ac3d
00000040: 6ed3 fabb 7a5e 91bc 0665 cf3e 4f8f 9fbe
00000050: 6825 d23e 3997 f93d 53be 8abd 04f7 12be
00000060: ab80 b6bd 655b 253c 4330 abbd b619 0a3d
00000070: e408 17be b145 da3d 52cb 20be 9500 333e
00000080: 7a12 c63d e995 493d c3fe 3fbc 0502 38bd
00000090: d896 cabe 476d e6be 9155 ad3e fe60 9d3e
000000a0: d166 233e d38a 643e 1758 dbba 862a 343e
000000b0: 52cd 6ebd e44d 283d 79f1 6e3e 8af0 40be
000000c0: 5541 c1bd b588 3fbe b337 c63d 3654 343d
000000d0: 324d 46bd 55ba b7bc 8e0e 3ebe e678 723e
000000e0: 2520 febd 6ffa 9e3d c010 86be 2a20 383c
000000f0: 4415 4d3e 7d3e 013e ab41 e9bc 4e1e fcbd
00000100: 9dbf 99bd 2038 fc3d 6e5d ed3c a8f7 3bbe
00000110: 6122 e23d aa84 5f3d f94d 53be 57c4 afbd
00000120: 64fd be3e c1c2 f8bd 8fda de3c ae53 b33e
00000130: 58a4 15be 6f00 553e dcf8 24bd 385d 1e3e
00000140: 1577 bc3d 287a 8ebd 9ca2 7abd 3bb1 8cbd
00000150: 1b11 c6bc dc77 8e3e e352 b4bd 046e a7bb
00000160: e8e7 a8bd eaa1 a5bc 6c96 53be 1af2 073f
00000170: 5590 3bbc df6a 273e ed93 e6bc 184e 1abe
00000180: d32b 813d bdc3 393c edb3 2b3d ebb0 20bb
00000190: 98c2 7abd 30b3 d1bd 79c6 0dbe 3b91 eebd
000001a0: 3246 abbc 510a 0b3e 4b3d 053e 5640 243c
000001b0: 8c0f febe e944 afbd 6c45 dabe 3fd6 443e
000001c0: afdd bbbc b3a8 943d 97fc 1f3d cc4f c43d
000001d0: 7f70 efbd d50f 2f3d 3c7d 403c b8dc 023d
000001e0: a474 69be 68f8 e9bd 12d6 8e3d b10d b03d
000001f0: a9e1 3a3d e7ae a93c 1673 8cbd 9f61 fe3e
00000200: 1168 e73e 712a e33e dd41 413e 688d aa3d
00000210: 90c0 8cbd 0c53 0e3d ff3c 033d 18d1 13bd
00000220: 8136 b13e 8298 79be bd1e 193d fb51 29be
00000230: cb32 713d b394 863d 2e47 42bd 873e 38bc
00000240: 0c15 d8bd 7d6d d8be 9e43 33be b56b 5a3e
00000250: 8d4c 183d 0a59 c03d e22e 1b3e 8444 29be
00000260: 4022 2a3d 3923 09be 861c 63be c2ad 09be
00000270: c83e e4bd 4268 7f3d e449 023e 3a82 963d
00000280: 56a3 97bd 4855 a13d e373 ff3b 0b31 98bd
00000290: 3a60 e6bd db79 86be a06a c2be 7981 8dbd
000002a0: d24f 853c 398b 2a3c 39c6 2ebd b052 043d
000002b0: c5a8 063f 87ed 02be b5ba 4f3e 7402 943e
000002c0: 53a6 fd3d f014 e03c 9bf6 d03c 4328 05bd
000002d0: 8d13 203f 9379 b63d 1e62 0e3f 527e 5d3d
000002e0: 5214 b1bd c0a1 dcbd 10cb 103c 225d b5bc
000002f0: 3cca 4c3d bcfa a3bd b835 5d3c a9bd e13d
00000300: 43bb 92bd d7f1 94bd 7a6a 89bb ec0d a5bd
00000310: c50b 90bc e152 6cbd c960 d23e 4ed7 0dbe
00000320: ea21 003e 891e d23d d33d 2fbc 743e fdbd
00000330: c0fb 35bd fa68 4abd de2f 9bbc 3bf6 fabd
00000340: a2ec 0abd eefc 8bbc b8a9 78be 6a25 91bd
00000350: 1f7b d63c 84b0 df3b 2909 8bbd b075 0bbd
00000360: e8f6 bfbe 1d86 d63e faed 11be e41c d33c
00000370: e2cd 9ebd a9ea 9c3d 54c2 08be 43ab fe3d
00000380: 542c bbbd 815d 303c 56fb 8e3d 688d b0be
00000390: 675b 0f3e c723 e83d f520 08be 79dc 7c3d
000003a0: 5037 f2bd 4a50 523c 40d9 d43e 1b81 80bd
000003b0: c996 03be 226a 583b 9a75 453e a4b7 3fbe
000003c0: 3463 dbbd ebab 2f3e 163e 26be 590d 053e
000003d0: 3a63 3ebe 9cc7 893d 1efb 8cbe 2be6 72be
000003e0: af76 5cbd b853 ab3d a9d2 c9bb 9547 263e
000003f0: 4407 86bd 09eb bbbe f7e4 9f3e 6b42 8b3d

layers.layer_0.bias f4 [128]
-0.0036304507 0.13672328 0.031303067 -0.10421573 -0.09548717 0.12512764 0.09980973 -0.13444069
0.24372505 0.049133647 -0.11729653 0.062685534 0.04564465 -0.09113302 0.23348163 0.09761549
0.024874767 -0.06881476 -0.016109856 0.18918905 0.017164793 0.04372452 0.1814786 0.32157034
0.27074707 0.25770995 -0.10586784 -0.10098041 0.10299894 -0.01295723 0.27507174 0.0062908367
0.18642612 0.20013146 0.09198126 -0.044554133 -0.0063135177 0.07073214 0.16448392 -0.012631275
0.18180308 0.2848573 0.006606703 0.043127675 0.25020534 -0.053733833 0.10843728 -0.027054958
-0.051424276 0.25160733 -0.03433505 -0.075500935 0.24677569 -0.025292877 -0.046170305 0.1837835
0.18327592 0.2713957 -0.036486212 0.22359045 0.25043446 0.19880487 0.07431242 0.101149924
0.17143689 0.12326191 0.21607126 -0.07339033 0.18076478 -0.13843633 -0.046785586 -0.018075034
-0.014037094 0.051479947 0.13394861 0.26124835 0.31800967 0.055021506 0.2841883 0.18662228
0.14383553 -0.12319821 0.14452246 0.06283265 0.004166939 0.17540322 -0.04160174 -0.05172385
0.16979776 -0.09258127 -0.021628354 0.19635957 -0.01199055 -0.19016874 0.21541373 -0.04672313
0.11187946 0.3455293 0.22871776 0.27821398 -0.03909655 -0.077551916 0.30760843 0.008666264
0.25890237 -0.10419207 -0.030184058 0.05315807 0.28548077 0.21298975 0.30326712 0.09260227
0.2542793 0.29217228 0.10119685 -0.049456507 0.16208912 -0.118686154 0.31271237 0.007445268
0.18061583 0.08358347 0.007515489 0.24484359 0.032532863 0.07387373 0.20859893 0.21175368
00000000: dbec 6dbb 3001 0c3e a537 003d 0f6f d5bd
00000010: c78e c3bd 7621 003e 0b69 cc3d d2aa 09be
00000020: 0f93 793e 5d40 493d 2a39 f0bd 4661 803d
00000030: e2f5 3a3d f3a3 babd cf15 6f3e a1ea c73d
00000040: 2bc6 cb3c c1ee 8cbd d1f8 83bc c6ba 413e
00000050: 2e9d 8c3c 7b18 333d 87d5 393e dea4 a43e
00000060: 5c9f 8a3e 8ff2 833e 3dd1 d8bd d1ce cebd
00000070: 1cf1 d23d 904a 54bc 34d6 8c3e 5d23 ce3b
00000080: 7de6 3e3e 43ef 4c3e ac60 bc3d 657e 36bd
00000090: a0e1 cebb 03dc 903d 796e 283e 68f3 4ebc
000000a0: 962a 3a3e d1d8 913e 0b7d d83b a5a6 303d
000000b0: ea1a 803e 0218 5cbd 5d14 de3d 5ca2 ddbc
000000c0: 43a2 52bd add2 803e e9a2 0cbd 3ca0 9abd
000000d0: c4b2 7c3e 0233 cfbc 131d 3dbd be31 3c3e
000000e0: afac 3b3e 61f4 8a3e 9172 15bd e5f4 643e
000000f0: f238 803e 8193 4b3e 1c31 983d b127 cf3d
00000100: 278d 2f3e be70 fc3d c941 5d3e ab4d 96bd
00000110: 671a 393e 41c2 0dbe 3ea2 3fbd 1812 94bc
00000120: d7fb 65bc a3dc 523d d329 093e 58c2 853e
00000130: 2ad2 a23e 3b5e 613d 2181 913e e919 3f3e
00000140: 9f49 133e 584f fcbd b2fd 133e 68ae 803d
00000150: d18a 883b e79c 333e 9666 2abd 63dc 53bd
00000160: 77df 2d3e 409b bdbd f22d b1bc 7c12 493e
00000170: 0374 44bc 98bb 42be 6b95 5c3e c160 3fbd
00000180: 0f21 e53d 37e9 b03e fd34 6a3e 1072 8e3e
00000190: b423 20bd 8ad3 9ebd da7e 9d3e f2fc 0d3c
000001a0: da8e 843e a762 d5bd 8f44 f7bc 47bc 593d
000001b0: 892a 923e fc19 5a3e d445 9b3e 42a6 bd3d
000001c0: e530 823e 9b97 953e 4b40 cf3d e892 4abd
000001d0: b1fa 253e ba11 f3bd d61b a03e 6ff7 f33b
000001e0: 5bf3 383e cf2d ab3d 7e44 f63b 47b8 7a3e
000001f0: 2e41 053d 1c4b 973d f59a 553e f5d5 583e

layers.layer_1.weight f4 [128, 128]
-0.022804957 0.08752209 -0.0146135455 -0.06327235 0.09980909 0.040584162 -0.054600894 0.02250027
0.02107559 -0.0545511 -0.028051853 -0.015207639 -0.00026515446 0.0031646627 -0.003798021 0.095013395
0.028478494 0.0047499384 -0.03217999 -0.03027514 0.06620038 -0.053323243 -0.04288593 0.12702551
0.080102384 0.1321136 -0.016754052 -0.018519778 0.13179578 0.102528505 0.051565725 0.012079556
0.06085523 0.07742197 0.08205963 0.012597701 -0.09403916 0.01660514 0.058203623 -0.0018101288
0.014964738 0.12864545 -0.083219536 0.035858974 -0.01741073 -0.029472414 0.072446406 0.12127893
0.06785514 0.06325677 0.016702596 0.00013739837 -0.022644162 0.044106953 0.036009926 0.02328543
0.10471117 0.0037431796 0.13081141 0.09907173 0.06621396 0.057034962 -0.026347077 -0.053064756
-0.03305171 -0.035887275 0.044323392 0.035357546 0.017332735 -0.047498494 -0.03926121 0.027620856
0.03305495 0.101453744 0.053109784 -0.081547014 0.04594577 -0.085478105 -0.028996121 -0.021909757
0.105220914 0.054377344 0.06952421 0.037502278 0.02369112 0.013729387 -0.049035333 -0.05239452
-0.0052735354 0.0012996686 -0.06544246 0.07144596 0.03519215 0.049348257 0.050934754 0.16935508
0.06729083 0.11731463 0.09131165 -0.028781213 0.0928583 0.036983337 0.030987693 -0.039246943
0.07092861 -0.11120593 -0.021962501 0.07459009 0.10874066 0.05353151 0.0137832 0.021023825
-0.027047936 -0.03854196 0.036946893 -0.0031122328 -0.016946327 -0.015741013 -0.04139088 -0.029396094
-0.0038607265 0.04060192 0.06745856 -0.010758723 -0.07444523 -0.035727646 0.043387 -0.071053535
0.04997497 -0.013090717 0.026104053 0.08940604 0.023718355 0.072783045 0.05387116 -0.014939005
-0.07307093 -0.018784445 -0.0061540264 0.044219907 0.024705412 -0.04140735 0.011353219 0.09677521
0.010513226 0.12489687 0.09897593 0.10051195 0.040325865 0.07055311 0.032944523 0.06330217
0.019118212 0.052020445 0.0016211557 0.090511985 0.08081049 0.00645167 -0.015500541 -0.039497152
0.022349238 -0.025413563 -0.02028494 0.048830792 0.0880743 0.055044983 0.047476415 -0.059917416
0.050554525 -0.043811247 -0.010726519 -0.045476273 0.099940345 -0.071905084 -0.033384003 -0.086950995
0.0721479 0.11829665 0.092761055 -0.016445817 -0.0002905047 -0.020698162 -0.06544901 -0.040933605
0.07832632 -0.02032962 0.0369405 0.051980358 0.07903352 -0.012180723 -0.086314596 0.024699839
-0.043338813 0.0061867894 -0.032742817 0.019462494 0.06807123 0.001390033 -0.019946102 -0.0121885985
0.1045446 -0.034470975 0.045961156 -2.5051659e-05 0.016511953 -0.024855372 0.111353 0.019572282
-0.008234804 0.03473249 0.093778044 0.09079221 0.044092443 -0.029686041 0.0008428196 -0.025853092
-0.06646368 -0.035744444 -0.0021530068 0.0857185 0.08231744 0.066272885 0.0636012 -0.011091725
-0.040445294 0.019371394 -0.023889888 -0.06611141 -0.010697593 0.005692195 -0.01560935 -0.036384813
-0.06145471 0.020876458 -0.071372434 0.029112794 0.0228963 -0.013451823 -0.024516964 -0.052860603
0.051222347 0.08692066 -0.0018734091 0.07565332 -0.0246717 -0.016624795 0.021729602 0.06822106
0.04764952 0.05234879 0.019341571 0.058306728 0.08156788 -0.03700172 0.08146251 0.063226394
00000000: 76d1 babc c83e b33d a76d 6fbc ef94 81bd
00000010: b568 cc3d 943b 263d 30a5 5fbd 7c52 b83c
00000020: b7a6 ac3c f970 5fbd 00cd e5bc 7629 79bc
00000030: 6e04 8bb9 3b66 4f3b 38e8 78bb 6296 c23d
00000040: bb4b e93c 5fa5 9b3b 2acf 03bd 9203 f8bc
00000050: 1194 873d 7969 5abd 28a9 2fbd fa12 023e
00000060: b80c a43d ca48 073e cb3f 89bc cab6 97bc
00000070: 79f5 063e 77fa d13d 9536 533d 54e9 453c
00000080: 5543 793d 698f 9e3d e10e a83d 9666 4e3c
00000090: 9a97 c0bd 8107 883c ec66 6e3d d841 edba
000000a0: a92e 753c a2bb 033e 016f aabd dce0 123d
000000b0: f2a0 8ebc 2270 f1bc c85e 943d 1661 f83d
000000c0: a3f7 8a3d c48c 813d e2d3 883c 9812 1039
000000d0: 4080 b9bc 7ea9 343d 257f 133d 16c1 be3c
000000e0: cf72 d63d 2250 753b 6df3 053e 1fe6 ca3d
000000f0: 2f9b 873d 7e9d 693d d3d5 d7bc 6e5a 59bd
00000100: 3b61 07bd 89fe 12bd 728c 353d 13d3 103d
00000110: 61fd 8d3c c88d 42bd 5dd0 20bd 2245 e23c
00000120: a164 073d fbc6 cf3d a589 593d 1f02 a7bd
00000130: a231 3c3d 250f afbd 4689 edbc 177c b3bc
00000140: 107e d73d c7ba 5e3d b662 8e3d fd9b 193d
00000150: e113 c23c 39f1 603c 46d9 48bd a39b 56bd
00000160: 9fcd acbb a459 aa3a b206 86bd 4252 923d
00000170: a525 103d 6621 4a3d f6a0 503d 6b6b 2d3e
00000180: c6cf 893d a742 f03d 9a01 bb3d 94c6 ebbc
00000190: 7e2c be3d d77b 173d e7d9 fd3c 67c1 20bd
000001a0: 0543 913d efbf e3bd b4ea b3bc b0c2 983d
000001b0: 6cb3 de3d db43 5b3d eed2 613c 283a ac3c
000001c0: a293 ddbc 2dde 1dbd a055 173d 9af6 4bbb
000001d0: 06d3 8abc 4cf3 80bc 7c89 29bd 14d0 f0bc
000001e0: 3e04 7dbb 334e 263d b727 8a3d 5b45 30bc
000001f0: be76 98bd 2757 12bd 91b6 313d 8484 91bd
00000200: 8eb2 4c3d 727a 56bc 2bd8 d53c 841a b73d
00000210: ff4c c23c 470f 953d 01a8 5c3d bac2 74bc
00000220: 36a6 95bd d6e1 99bc b7a7 c9bb ef1f 353d
00000230: 0163 ca3c c19a 29bd da02 3a3c 1532 c63d
00000240: aa3f 2c3c eec9 ff3d e4b3 ca3d 36d9 cd3d
00000250: bc2c 253d 267e 903d d6f0 063d 91a4 813d
00000260: cc9d 9c3c 6413 553d f57c d43a 595e b93d
00000270: f87f a53d 8868 d33b fbf5 7dbc c4c7 21bd
00000280: c015 b73c 1b30 d0bc 9a2c a6bc cc02 483d
00000290: 4c60 b43d d976 613d a176 423d f76b 75bd
000002a0: 4312 4f3d 6c73 33bd 48be 2fbc 5445 3abd
000002b0: 86ad cc3d f942 93bd aabd 08bd 5d13 b2bd
000002c0: 47c2 933d 8445 f23d 82f9 bd3d 61b9 86bc
000002d0: e14e 98b9 318f a9bc 210a 86bd ffa9 27bd
000002e0: 8d69 a03d 4e8a a6bc ec4e 173d 5be9 543d
000002f0: 53dc a13d a891 47bc b5c5 b0bd 5157 ca3c
00000300: 0a84 31bd 8dba ca3b 551d 06bd cf6f 9f3c
00000310: ee68 8b3d c531 b63a 0266 a3bc b0b2 47bc
00000320: 7b1b d63d 7031 0dbd c441 3c3d 0726 d2b7
00000330: 1344 873c 7e9d cbbc 0b0d e43d 0d56 a03c
00000340: 45eb 06bc a843 0e3d b40e c03d 44f1 b93d
00000350: 479a 343d 2430 f3bc aaf0 5c3a ddc9 d3bc
00000360: 1c1e 88bd c468 12bd 7619 0dbb 2e8d af3d
00000370: 0c96 a83d 14ba 873d 5941 823d 11ba 35bc
00000380: f7a9 25bd c2b0 9e3c bab4 c3bc 6b65 87bd
00000390: f544 2fbc 9885 ba3b 5cbe 7fbc 3e08 15bd
000003a0: efb7 7bbd 1b05 ab3c b62b 92bd f47d ee3c
000003b0: 0591 bb3c 0965 5cbc cdd7 c8bc 5c84 58bd
000003c0: 86ce 513d 7603 b23d 2e8d f5ba 21f0 9a3d
000003d0: 4e1c cabc b930 88bc 4702 b23c 7cb7 8b3d
000003e0: 252c 433d af6b 563d 3772 9e3c 09d3 6e3d
000003f0: 100d a73d 1e8f 17bd d1d5 a63d d77c 813d

layers.layer_1.bias f4 [128]
0.0975864 -0.030200321 0.11236879 -0.11240855 -0.029610684 0.122863755 0.016491717 0.105433166
0.006646635 0.0040956205 0.008433568 -0.14440376 0.11572952 0.08088849 -0.04120619 -0.037765887
-0.011835154 -0.018138433 0.036529344 -0.08354852 0.05280683 -0.019709118 -0.11875529 0.056264576
-0.04188436 0.03208547 0.03980648 -0.011830418 -0.04654585 0.05637715 -1.0353198e-05 0.04142083
-0.04431045 0.08273256 0.082433425 0.07871583 0.046019148 0.033224273 0.09410629 0.05751518
0.026994891 -0.041364033 0.042582456 -0.0015340076 -0.05070592 -0.048867945 0.12185535 0.11260868
0.024062738 0.04998517 0.10511051 0.069688216 0.1125976 -0.02075487 -0.04033108 -0.037939925
-0.011234893 -0.05751618 0.00992667 -0.06763082 0.03678141 0.022808623 0.010866852 0.053811293
-0.009191746 0.0010286949 -0.049738504 0.08765201 -0.15383653 0.08961436 0.009693821 0.031044777
-0.033111814 -0.0017142833 -0.052716974 0.0033002445 0.06547283 -0.013400701 0.06304538 0.10510665
0.004159792 0.051320463 0.0898663 0.09905257 0.075624585 -0.039664567 0.002873885 -0.054660942
0.05549711 0.085105374 0.06101855 -0.00031578532 0.075163126 0.04410565 0.07687514 0.10228209
-0.007795295 0.023270994 -0.0366491 -0.075983696 0.075445615 0.10838408 -0.015801147 0.09027885
0.009076515 -0.055597637 -0.034929637 0.023848433 0.068434596 0.005631352 -0.0037205333 0.049892493
-0.04634013 0.08541918 -0.018969184 0.041306973 0.069229335 -0.061969634 -0.026985625 -0.037578005
-0.022789506 0.029606372 0.026737211 0.075460464 0.008055159 0.010699286 -0.07489527 0.09556816
00000000: 61db c73d aa66 f7bc 9c21 e63d 7436 e6bd
00000010: 1b92 f2bc fe9f fb3d a319 873c 58ed d73d
00000020: 04cc d93b 8e34 863b f32c 0a3c 94de 13be
00000030: 9903 ed3d dda8 a53d d2c7 28bd 67b0 1abd
00000040: 3ce8 41bc 0d97 94bc cb9f 153d 7d1b abbd
00000050: f94b 583d 0475 a1bc f935 f3bd af75 663d
00000060: ef8e 2bbd 0e6c 033d 1f0c 233d 5fd4 41bc
00000070: dca6 3ebd baeb 663d a6b2 2db7 e3a8 293d
00000080: e07e 35bd b06f a93d dbd2 a83d c435 a13d
00000090: 937e 3c3d 2d16 083d ccba c03d 0a95 6b3d
000000a0: 6424 dd3c 556d 29bd f16a 2e3d c110 c9ba
000000b0: 03b1 4fbd c129 48bd 4c8f f93d 619f e63d
000000c0: 381f c53c 40bd 4c3d 2e44 d73d b2b8 8e3d
000000d0: 9299 e63d 1e06 aabc 3432 25bd e566 1bbd
000000e0: 8f12 38bc 1696 6bbd 79a3 223c 0782 8abd
000000f0: 1ba8 163d 26d9 ba3c e10a 323c 3b69 5c3d
00000100: fa98 16bc 46d5 863a 9aba 4bbd e682 b33d
00000110: 5387 1dbe bc87 b73d d5d2 1e3c 9e51 fe3c
00000120: 41a0 07bd cdb1 e0ba c1ed 57bd ea48 583b
00000130: 9e16 863d 9d8e 5bbc f01d 813d 2842 d73d
00000140: dd4e 883b 6835 523d d30b b83d 13dc ca3d
00000150: 10e1 9a3d 5077 22bd ca57 3c3b 27e4 5fbd
00000160: f050 633d ba4b ae3d 96ee 793d fd8f a5b9
00000170: 20ef 993d 20a8 343d b770 9d3d 4679 d13d
00000180: ad6f ffbb d0a2 be3c 5e1d 16bd 579d 9bbd
00000190: 3b83 9a3d 79f8 dd3d 6871 81bc 1ee4 b83d
000001a0: aab5 143c 59ba 63bd 6112 0fbd ca5d c33c
000001b0: 7027 8c3d 3487 b83b 31d4 73bb 125c 4c3d
000001c0: 26cf 3dbd 40f0 ae3d 4365 9bbc 8031 293d
000001d0: 1cc8 8d3d dfd3 7dbd f510 ddbc 65eb 19bd
000001e0: 0fb1 babc 1089 f23c ff07 db3c 048b 9a3d
000001f0: c9f9 033c 0f4c 2f3c b162 99bd 3db9 c33d

layers.layer_2.weight f4 [128, 128]
-0.0018083316 -0.03307822 0.061171953 -0.07141252 -0.0494725 -0.012946327 -0.035739765 -0.10779328
-0.09585966 0.044751238 0.07337485 0.17202917 -0.04438415 -0.01749129 0.07435372 0.0026525662
0.085774675 -0.00020360612 -0.023318343 0.04515268 0.045261543 -0.05232458 0.07011529 0.020793417
0.0524978 -0.008374591 -0.030325796 0.02771972 -0.02378268 -0.00065605534 -0.012425393 -0.013643438
0.032107186 -0.0057561374 0.10636777 -0.0409109 0.09616509 -0.0010844949 0.0009772783 0.033073876
-0.04765884 0.024157252 0.0155432355 0.077849075 0.09290484 0.07042341 0.098646276 0.10354256
-0.017816871 0.07481793 0.018393377 0.101058654 -0.02597156 -0.050254025 0.02842014 -0.056933075
0.04916626 0.016318733 -0.060290545 0.14563487 0.030234342 0.09822879 -0.0032680756 0.027413554
-0.015520425 0.010969164 0.053199835 -0.064032845 -0.48787764 -0.07320776 0.07675357 0.009757542
-0.06875373 -0.0451116 0.009337251 0.075596415 0.015780982 0.05065647 0.055466343 0.06430457
-0.044755585 0.094665974 0.025946055 -0.0071906433 -0.05118439 -0.04518594 0.0316391 -0.08066162
0.020488651 0.038080096 0.0021169607 -0.049218442 -0.04046138 -0.07791039 0.02579984 -0.013592262
0.015099427 0.00800132 0.06799032 0.029635468 -0.040344466 0.055843737 0.0066186446 -0.047997445
0.059296522 -0.036045168 -0.0686704 -0.07647707 0.039005123 -0.02452294 0.044734616 -0.0085451
0.004452163 0.07999681 -0.07440862 -0.06608592 0.0036133071 -0.33750972 -0.0844811 -0.0144311115
-0.051789925 0.060439873 0.0700707 -0.020309702 0.07165282 -0.089245975 0.26356435 -0.015156345
-0.053955954 -0.090806976 0.057423003 -0.18121086 0.07322668 -0.059731487 -0.060186014 0.101368286
0.09389981 -0.07018677 -0.07278748 0.110466294 -0.031189641 -0.06663106 0.1203829 0.054630484
-0.0005373853 -0.008279555 -0.064747564 0.09363246 -0.09021434 0.042719238 -0.39079872 -0.006996764
0.05728412 -0.032427344 0.06304627 0.017657716 -0.026565446 -0.025578171 0.051204003 0.030371213
-0.0445442 -0.08548347 -0.016162444 -0.010756035 0.11320908 0.061083186 -0.005732794 -0.043685023
0.059264522 -0.04026601 0.0022210162 0.085987724 0.11485834 0.045922447 -0.06873481 0.0749357
-0.023576133 0.060657684 0.04809201 0.14936276 0.04707294 -0.0025916665 0.06682125 -0.112317465
0.062965274 -0.033557985 -0.08662624 0.20660727 0.07281199 -0.0044906023 -0.019428218 -0.021856349
-0.07567123 0.016660701 0.030507788 0.01843904 0.2440585 0.06175505 -0.016435789 0.04742884
0.029210737 -0.03907984 0.004061233 0.022114987 -0.05889744 0.08583009 0.011054738 0.014627434
0.0066092927 0.021472553 0.016689973 -0.011712281 -0.0063178577 0.11048319 0.064610735 -0.06343889
0.007542929 -0.016133143 0.09254117 -0.062442362 0.07459733 0.052062165 0.06965741 0.07041587
-0.11392555 0.041565776 -0.04552435 0.05547872 -0.02124609 -0.0145439 -0.09941527 -0.024276871
0.04680027 -0.006730533 -0.02732404 -0.04675884 0.05242784 -0.040807124 0.05359629 0.02342075
0.00484091 0.08819291 0.0897835 0.078883775 -0.023734802 -0.043217827 -0.0447079 0.064925954
0.018125545 -0.0033502537 -0.08091532 0.02588822 0.036578342 0.019946247 -0.26924774 0.06016197
00000000: 8a05 edba 077d 07bd 718f 7a3d ba40 92bd
00000010: ada3 4abd d51c 54bc dc63 12bd b9c2 dcbd
00000020: 1252 c4bd 134d 373d 8e45 963d 6a28 303e
00000030: 28cc 35bd e549 8fbc c346 983d add6 2d3b
00000040: a2aa af3d 1a7f 55b9 1c06 bfbc 04f2 383d
00000050: 2b64 393d 4c52 56bd 9b98 8f3d f556 aa3c
00000060: ef07 573d 9535 09bc ce6d f8bc 7714 e33c
00000070: e5d3 c2bc 21fb 2bba e093 4bbc ba88 5fbc
00000080: d382 033d fb9d bcbb 58d7 d93d 3092 27bd
00000090: 34f2 c43d 9c25 8eba 0518 803a 7978 073d
000000a0: ea35 43bd 6ee5 c53c 0ea9 7e3c 566f 9f3d
000000b0: e544 be3d 263a 903d 0f07 ca3d 1f0e d43d
000000c0: b0f4 91bc 253a 993d b5ad 963c d7f7 ce3d
000000d0: 4fc2 d4bc 2ad7 4dbd 5ad1 e83c a832 69bd
000000e0: 8f62 493d ddae 853c 38f3 76bd 4f21 153e
000000f0: 03ae f73c 2d2c c93d 362d 56bb 6492 e03c
00000100: 6149 7ebc 02b8 333c 12e8 593d a723 83bd
00000110: 19cb f9be f3ed 95bd fa30 9d3d 19de 1f3c
00000120: c1ce 8cbd f1c6 38bd 45fb 183c 4bd2 9a3d
00000130: 1e47 813c 297d 4f3d ad30 633d 1db2 833d
00000140: a251 37bd 3ce0 c13d d28c d43c 7d9f ebbb
00000150: b9a6 51bd e414 39bd 0098 013d eb31 a5bd
00000160: d1d7 a73c e0f9 1b3d b5bc 0a3b 4799 49bd
00000170: d5ba 25bd 7c8f 9fbd 305a d33c 14b2 5ebc
00000180: 9663 773c f817 033c 823e 8b3d 15c6 f23c
00000190: 3d40 25bd 67bc 643d 37e1 d83b f898 44bd
000001a0: e9e0 723d 19a4 13bd 11a3 8cbd 03a0 9cbd
000001b0: d6c3 1f3d 55e4 c8bc a53b 373d bf00 0cbc
000001c0: 73e3 913b 5ed5 a33d 8c63 98bd 0e58 87bd
000001d0: 3ccd 6c3b 13ce acbe 6d04 adbd 7870 6cbc
000001e0: ac21 54bd cd8f 773d 3a81 8f3d 8860 a6bc
000001f0: b7be 923d 98c6 b6bd e8f1 863e 5252 78bc
00000200: eb00 5dbd 02f9 b9bd 6234 6b3d 578f 39be
00000210: dff7 953d 01a9 74bd 9c85 76bd 2d9a cf3d
00000220: 8b4e c03d 15be 8fbd 9a11 95bd 273c e23d
00000230: 6b81 ffbc dd75 88bd 4f8b f63d 37c4 5f3d
00000240: 51df 0cba f8a6 07bc 5f9a 84bd 60c2 bf3d
00000250: 4cc2 b8bd 5efa 2e3d c516 c8be 1c45 e5bb
00000260: c1a2 6a3d 89d2 04bd 671e 813d eaa6 903c
00000270: c79f d9bc 5089 d1bc 4abb 513d 0dcd f83c
00000280: fb73 36bd f511 afbd 1a67 84bc 153a 30bc
00000290: 2ada e73d 5d32 7a3d 29da bbbb 11ef 32bd
000002a0: 5bbf 723d f9ed 24bd 788e 113b 551a b03d
000002b0: d93a eb3d 2d19 3c3d d6c4 8cbd e377 993d
000002c0: bc22 c1bc 3174 783d 21fc 443d 8df2 183e
000002d0: 8ecf 403d f3d8 29bb 94d9 883d b306 e6bd
000002e0: f0f3 803d 1974 09bd 1969 b1bd db90 533e
000002f0: 741e 953d e725 93bb ed27 9fbc 160c b3bc
00000300: 85f9 9abd 067c 883c 78eb f93c 780d 973c
00000310: 79ea 793e ddf2 7c3d 59a4 86bc be44 423d
00000320: 5b4b ef3c 2f12 20bd 1714 853b 7d2a b53c
00000330: 713e 71bd b0c7 af3d ef1e 353c e8a7 6f3c
00000340: c492 d83b 35e7 af3c 69b9 883c dee4 3fbc
00000350: 0806 cfbb 0345 e23d a252 843d 40ec 81bd
00000360: ad2a f73b a729 84bc 3a86 bd3d 90c3 7fbd
00000370: 7cc6 983d 233f 553d 8ba8 8e3d 3236 903d
00000380: cc51 e9bd e040 2a3d be77 3abd a83d 633d
00000390: 480c aebc 8a49 6ebc 3c9a cbbd 4ae0 c6bc
000003a0: a4b1 3f3d ce8b dcbb aad6 dfbc 3386 3fbd
000003b0: 93be 563d 5f25 27bd c987 5b3d dfdc bf3c
000003c0: 7fa0 9e3b 7c9e b43d 69e0 b73d d18d a13d
000003d0: 7d6f c2bc 2d05 31bd a21f 37bd e6f7 843d
000003e0: 067c 943c ee8f 5bbb eeb6 a5bd 8813 d43c
000003f0: 2cd3 153d 5066 a33c d7da 89be 666c 763d

layers.layer_2.bias f4 [128]
0.043356664 -0.026207607 0.01844044 -0.0101681 -0.04205859 0.048203543 -0.045104083 -0.029317733
-0.10561006 0.035751566 -0.010364967 -0.04521181 0.052675217 -0.068648025 -0.037703607 0.106009565
-0.01749666 -0.082161486 0.06541649 -0.07361567 -0.022179702 -0.024408793 0.027504496 0.0038289207
-0.077720106 0.0071122334 0.042191982 0.037561264 -0.014029962 -0.017327074 0.039948545 -0.05166393
0.0639792 0.08644592 0.06257226 0.058675963 0.06352859 0.09301746 -0.032162767 -0.02867379
0.08822315 0.05912724 -0.051068 0.020105423 -0.030053187 0.07146437 0.010363735 -0.06249218
0.10356015 -0.07339547 0.007322827 0.027158324 -0.0028987136 -0.038265266 0.06919281 0.009360522
-0.033982888 0.0047022626 -0.008573639 -0.045396607 0.01287593 0.09810425 0.0074523366 -0.062404234
-0.007940582 0.08138247 -0.07606313 0.06891865 -0.065963365 -0.0885564 -0.032124862 0.067221485
0.050828945 -0.033310186 0.031137705 -0.079923354 0.04890127 -0.050923336 -0.068847 0.046170235
-0.0109059615 0.059083007 -0.041393373 0.1018644 0.04845618 0.012083739 0.07902049 0.057885032
-0.026231943 -0.011365281 -0.015781712 0.044701107 0.10526485 0.059578 0.04455456 0.057225134
0.07497115 0.04873514 0.021470873 -0.0006482132 -0.0056505357 0.06901335 0.058691673 -0.018884031
-0.012286024 0.09022965 -0.05443306 0.075935826 0.08947619 0.042897318 0.03532562 -0.03257351
-0.05875467 -0.008204984 0.04353824 0.016118126 -0.031473305 -0.01861856 0.029620698 -0.05250606
0.044697903 0.049122885 -0.006507773 0.021765532 -0.07668368 0.07573851 -0.05630321 0.098040886
00000000: c296 313d 56b1 d6bc 6810 973c 1a98 26bc
00000010: a145 2cbd 1471 453d 0fbf 38bd be2b f0bc
00000020: 164a d8bd 3c70 123d d3d1 29bc 0530 39bd
00000030: f8c1 573d 5697 8cbd 196f 1abd 8b1b d93d
00000040: 2855 8fbc 4844 a8bd 15f9 853d d0c3 96bd
00000050: 35b2 b5bc f3f4 c7bc 1c51 e13c a1ee 7a3b
00000060: b82b 9fbd bd0d e93b 80d1 2c3d d7d9 193d
00000070: eddd 65bc 82f1 8dbc 16a1 233d 8f9d 53bd
00000080: 8707 833d 8f0a b13d e325 803d 3556 703d
00000090: 471b 823d f07f be3d 1bbd 03bd 4ce5 eabc
000000a0: 57ae b43d 682f 723d ae2c 51bd 21b4 a43c
000000b0: 1a32 f6bc e95b 923d a8cc 293c cdf7 7fbd
000000c0: 5817 d43d 5d50 96bd 53f4 ef3b 227b de3c
000000d0: 58f8 3dbb 0abc 1cbd f6b4 8d3d e05c 193c
000000e0: a431 0bbd 7015 9a3b 7378 0cbc cbf1 39bd
000000f0: 91f5 523c e2ea c83d bb32 f43b 959b 7fbd
00000100: 3719 02bc daab a63d fcc6 9bbd 3925 8d3d
00000110: cd17 87bd 0f5d b5bd 5c95 03bd 6bab 893d
00000120: 0332 503d 4370 08bd 8014 ff3c dbae a3bd
00000130: b34c 483d fd94 50bd a8ff 8cbd 001d 3d3d
00000140: ebae 32bc 0601 723d 198c 29bd 489e d03d
00000150: fd79 463d e0fa 453c 7fd5 a13d db18 6d3d
00000160: 5fe4 d6bc 7235 3abc a648 81bc 8218 373d
00000170: 1995 d73d 1008 743d d87e 363d e764 6a3d
00000180: 798a 993d 809e 473d afe3 af3c daec 29ba
00000190: 2128 b9bb df56 8d3d ae66 703d afb2 9abc
000001a0: 524b 49bc 53ca b83d 33f5 5ebd 3e84 9b3d
000001b0: 4b3f b73d 19b5 2f3d 99b1 103d cd6b 05bd
000001c0: bda8 70bd 326e 06bc 2755 323d 290a 843c
000001d0: 27ea 00bd f385 98bc 1ba7 f23c 9810 57bd
000001e0: 2615 373d 1435 493d 283f d5bb a14d b23c
000001f0: 550c 9dbd cb1c 9b3d 329e 66bd a9c9 c83d

layers.layer_3.weight f4 [128, 128]
0.08598728 -0.06583982 -0.053897176 0.20277211 -0.09678135 0.00011165513 0.10816686 0.0010892622
0.06552723 0.1442657 -0.08973808 -0.04892469 0.054369442 0.23742226 0.06677037 0.032282595
-0.0992074 -0.091215566 -0.012982585 0.02311969 -0.029911421 0.09236156 -0.04543902 -0.013682784
-0.031968065 -0.023873962 0.05502057 0.0024191784 -0.054572526 -0.052959315 -0.12503396 -0.011646457
-0.03677754 0.05659801 -0.06626698 -0.026090315 0.04994733 -0.097321786 -0.021379901 0.01970842
0.0004310986 -0.14032884 -0.031154908 -0.12062567 -0.0008842556 0.036708415 0.030942492 0.07088529
0.1111282 -0.09082439 0.14114048 -0.1710001 0.05098758 -0.085005 -0.02292733 0.038247306
0.048498414 0.08583408 0.0025486492 0.0026224605 -0.12848207 0.054854166 0.0027576317 -0.12245775
-0.0791503 0.017691765 -0.0043737683 -0.05296237 0.07856458 0.2988842 0.08159316 0.1466409
-0.0035662407 0.058388155 -0.030317694 -0.030542908 0.061763763 -0.19939311 -0.0807193 -0.093552575
-0.0061391047 0.05343674 -0.01175658 0.11316267 -0.096232735 0.09553543 -0.017563721 0.08658017
-0.046330012 0.06386548 0.16870745 0.010269053 -0.0041667204 -0.009859711 -0.00902293 0.059116725
-0.043959897 -0.0031726442 -0.048755884 0.045185827 0.05393145 0.030936504 -0.047041774 -0.0698698
-0.04374275 -0.055934884 0.043648705 0.00026755963 0.09803442 -0.012845105 -0.09590824 0.005732359
0.011524714 -0.09316209 0.0770708 -0.07515662 0.042901922 -0.025904832 0.20567933 -0.42055854
-0.13367425 0.08351448 0.10626006 0.012493305 -0.036011957 -0.01233579 0.05713699 -0.09495779
-0.13794702 0.11668544 0.102048166 -0.14226405 0.23286651 -0.019834528 0.07490518 0.14891374
0.037274063 -0.12618802 0.10632386 0.046999138 -0.06454768 -0.72271967 -0.024653425 -0.01424767
0.10597521 -0.0454692 -0.118362695 -0.118413836 0.21000479 0.024920313 -0.13943096 -0.103313
-0.019076591 -0.06620075 -0.09660323 -0.05641764 0.0037698739 0.05266555 0.15223186 -0.001115067
0.068919435 0.09536105 -0.02842699 -0.19752075 -0.054200053 -0.061367597 -0.082939826 -0.2139085
-0.041121177 0.3534034 -0.09066577 0.11914648 0.13076484 0.08280468 -0.059160393 -0.006025657
-0.08984853 0.06365437 -0.10897167 0.17281273 -0.0673411 0.040104415 -0.13372374 0.15744534
0.066655 -0.09755987 -0.056452602 0.09680553 0.096004345 -0.08941833 0.021453297 0.20077977
0.008116435 -0.085700825 -0.051262368 0.08472613 0.14560832 -0.20660022 -0.11580664 -0.17147344
-0.13405742 -0.02475534 -0.032562956 -0.091796 0.06829411 -0.02392847 0.16425559 0.06380978
0.100402355 0.06866306 0.058412775 -0.00477724 -0.013249198 -0.12520143 0.10400574 -0.015330962
-0.0267573 -0.12076335 -0.17559317 -0.0052555017 -0.06095469 0.047054753 0.004611713 0.0052696383
-0.03825315 -0.05321314 0.13022405 0.05775656 -0.1071807 -0.040132985 0.18588342 0.098996885
0.048741315 -0.014810394 -0.08406859 0.16889949 -0.024192322 -0.020456908 -0.049200196 -0.2995677
0.08747455 0.19764191 0.077038005 -0.054028314 0.177417 0.09423156 -0.37489027 0.42106447
0.13604453 0.12352238 -0.082686946 0.011120279 -0.014723611 -0.11490861 0.02414041 0.19263636
00000000: 191a b03d 07d7 86bd 49c3 5cbd 7ea3 4f3e
00000010: 4d35 c6bd 6428 ea38 9686 dd3d 93c5 8e3a
00000020: 2433 863d 63ba 133e 99c8 b7bd 4165 48bd
00000030: 7eb2 5e3d d21e 733e e7be 883d c13a 043d
00000040: 402d cbbd 3acf babd e8b4 54bc 8165 bd3c
00000050: cc08 f5bc 0f28 bd3d 441e 3abd c12d 60bc
00000060: f2f0 02bd 5493 c3bc 405d 613d 148b 1e3b
00000070: 7187 5fbd deeb 58bd e708 00be c8d0 3ebc
00000080: 0ca4 16bd 51d3 673d fbb6 87bd 5bbb d5bc
00000090: 9295 4c3d a550 c7bd e724 afbc 8d73 a13c
000000a0: 1305 e239 5db2 0fbe 9438 ffbc 970a f7bd
000000b0: 64cd 67ba 905b 163d 1c7b fd3c 4f2c 913d
000000c0: 2f97 e33d 2302 babd 2187 103e a61a 2fbe
000000d0: 5ad8 503d 1a17 aebd 19d2 bbbc 35a9 1c3d
000000e0: 46a6 463d c7c9 af3d 3d07 273b 96dd 2b3b
000000f0: ce90 03be c3ae 603d 62b9 343b 21cb fabd
00000100: 8d19 a2bd 52ee 903c d451 8fbb 12ef 58bd
00000110: 77e6 a03d 5a07 993e 511a a73d 0829 163e
00000120: 97b7 69bb 6b28 6f3d d05c f8bc 1f35 fabc
00000130: 00fc 7c3d b52d 4cbe 2950 a5bd 7e98 bfbd
00000140: 8b2a c9bb 7ce0 5a3d ac9e 40bc d4c1 e73d
00000150: ab15 c5bd 14a8 c33d cbe1 8fbc f250 b13d
00000160: 8ac4 3dbd e8cb 823d a5c1 2c3e 883f 283c
00000170: fc88 88bb a08a 21bc e9d4 13bc 6124 723d
00000180: 4b0f 34bd 23ec 4fbb 40b4 47bd c614 393d
00000190: 39e7 5c3d 8d6e fd3c e0ae 40bd e617 8fbd
000001a0: 992b 33bd fa1b 65bd fcc8 323d 3f47 8c39
000001b0: 45c6 c83d 4674 52bc 8a6b c4bd 83d6 bb3b
000001c0: 27d2 3c3c c4cb bebd 4cd7 9d3d b7eb 99bd
000001d0: edb9 2f3d 5f36 d4bc 9a9d 523e 7353 d7be
000001e0: e7e1 08be a409 ab3d e09e d93d b8b0 4c3c
000001f0: 4681 13bd 0e1c 4abc 7a08 6a3d 3b79 c2bd
00000200: fc41 0dbe c7f8 ee3d a1fe d03d abad 11be
00000210: 8f74 6e3e 057c a2bc e367 993d d87c 183e
00000220: b0ac 183d 6f37 01be 53c0 d93d 2b82 403d
00000230: 9331 84bd 2804 39bf fbf5 c9bc 0f6f 69bc
00000240: 8809 d93d e93d 3abd 2468 f2bd f482 f2bd
00000250: 7f0b 573e af25 cc3c fdc6 0ebe c495 d3bd
00000260: 8346 9cbc 4294 87bd ead7 c5bd 2f16 67bd
00000270: fd0f 773b d5b7 573d abe2 1b3e 7127 92ba
00000280: a225 8d3d a74c c33d b8df e8bc e142 4abe
00000290: e000 5ebd 975c 7bbd 5bdc a9bd d40a 5bbe
000002a0: ae6e 28bd 4af1 b43e faae b9bd 1203 f43d
000002b0: 38e7 053e 8095 a93d 2b52 72bd e072 c5bb
000002c0: 8202 b8bd 395d 823d 8a2c dfbd d2f5 303e
000002d0: 21ea 89bd 8744 243d e0ee 08be 5a39 213e
000002e0: 6b82 883d 78cd c7bd d83a 67bd fa41 c63d
000002f0: ed9d c43d f520 b7bd d3be af3c 3699 4d3e
00000300: ccfa 043c ea83 afbd 7df8 51bd e584 ad3d
00000310: 591a 153e 028f 53be 082c edbd bc96 2fbe
00000320: 5946 09be b6cb cabc bc60 05bd 8bff bbbd
00000330: c8dd 8b3d a405 c4bc 9e32 283e b4ae 823d
00000340: c09f cd3d 389f 8c3d 3c42 6f3d 658a 9cbb
00000350: 2a13 59bc ce34 00be f600 d53d b72e 7bbc
00000360: 2032 dbbc c652 f7bd b2ce 33be 5836 acbb
00000370: a0ab 79bd 7cbc 403d da1d 973b eeac ac3b
00000380: 56af 1cbd 06f6 59bd 7459 053e 2592 6c3d
00000390: 8e81 dbbd 7c62 24bd 3958 3e3e e1be ca3d
000003a0: f9a4 473d 4ba7 72bc 272c acbd fdf3 2c3e
000003b0: fa2e c6bc 3f95 a7bc 2586 49bd f060 99be
000003c0: db25 b33d a462 4a3e 1ac6 9d3d cb4c 5dbd
000003d0: cdac 353e 7afc c03d 9ef1 bfbe c395 d73e
000003e0: 424f 0b3e 4df9 fc3d c657 a9bd d531 363c
000003f0: 4d3b 71bc 3555 ebbd 1cc2 c53c 7742 453e

layers.layer_3.bias f4 [128]
0.056519017 -0.08076667 -0.018749146 -0.046651166 0.05273382 0.06373132 -0.08551123 0.020361044
-0.05007581 -0.052273843 -0.06899224 -0.018956656 0.047970913 0.024137525 -0.0044597546 -0.02724271
0.0042033796 -0.11383735 -0.08864554 0.009724385 -0.031350248 -0.049948294 -0.043245845 -0.095633954
-0.08373237 0.040491268 -0.075248644 0.013056454 -0.02538132 -0.07246223 0.0816336 0.072706096
0.036327768 -0.0434031 -0.053012695 -0.03232483 -0.07519765 -0.10164664 0.052765165 -0.02118709
0.007900589 0.06169441 0.05740332 0.007696998 -0.00016192714 -0.047411457 -0.0025105227 0.05512389
-0.059570752 0.018684356 -0.14806107 -0.047493502 -0.08855482 -0.08257888 -0.031084755 -0.070145145
0.04856338 0.0360766 -0.045057904 -0.08875856 -0.053290766 -0.045138817 0.00039574943 0.041763734
-0.07152765 0.06622237 0.059402823 -0.06479588 0.11734938 -0.072062835 -0.056039106 -0.06292413
-0.093521595 -0.082242645 0.07355012 0.029655492 0.011883099 -0.06290179 -0.030423261 0.082395814
-0.016856462 -0.031564075 0.061919857 0.07922203 0.025380237 0.08582169 0.018169658 0.026423372
-0.006135093 0.027671212 -0.01815583 -0.058090877 -0.054200698 -0.07078207 -0.087560855 -0.0042574396
0.009810418 -0.03619172 -0.04790755 0.07167507 -0.024184069 -0.059006084 0.032370284 -0.08439919
0.082314976 -0.042080183 -0.053158868 0.015904576 -0.10154547 0.08583861 -0.02235734 0.05501753
-0.03707952 -0.07437294 0.019799318 0.016614145 -0.061477866 -0.03101957 -0.06510176 0.0068149315
0.027937122 -0.082230374 0.042051718 0.015533103 0.09248051 0.04687176 0.017082267 -0.04766245
00000000: 7c80 673d ff68 a5bd cf97 99bc 4b15 3fbd
00000010: 6bff 573d 9185 823d 8320 afbd 34cc a63c
00000020: 4b1c 4dbd 191d 56bd ce4b 8dbd fd4a 9bbc
00000030: 267d 443d 0fbc c53c 2223 92bb 1b2c dfbc
00000040: 81bc 893b 8e23 e9bd cb8b b5bd 0753 1f3c
00000050: 1e69 00bd 9596 4cbd 8e22 31bd bcdb c3bd
00000060: e07b abbd 2cda 253d f61b 9abd bdea 553c
00000070: 7cec cfbc 1467 94bd 842f a73d efe6 943d
00000080: 6dcc 143d 73c7 31bd d723 59bd 0a67 04bd
00000090: 3a01 9abd 1d2c d0bd 4920 583d 8c90 adbc
000000a0: 7971 013c 47b3 7c3d be1f 6b3d 1937 fc3b
000000b0: fcca 29b9 8432 42bd 9587 24bb 97c9 613d
000000c0: 7600 74bd ef0f 993c 529d 17be 8c88 42bd
000000d0: 3b5c b5bd 1e1f a9bd 75a5 febc 42a8 8fbd
000000e0: 65ea 463d 0fc5 133d a38e 38bd 0cc7 b5bd
000000f0: 6b47 5abd 7be3 38bd 977c cf39 7310 2b3d
00000100: 177d 92bd 989f 873d 6050 733d b4b3 84bd
00000110: df54 f03d ae95 93bd 4389 65bd 5ede 80bd
00000120: 4088 bfbd d56e a8bd 72a1 963d 13f0 f23c
00000130: 54b1 423c a7d2 80bd 343a f9bc 23bf a83d
00000140: 9016 8abc 5549 01bd ad9f 7d3d 293f a23d
00000150: 37ea cf3c 48c3 af3d 89d8 943c d475 d83c
00000160: e408 c9bb bdae e23c 89bb 94bc b3f0 6dbd
00000170: 8d01 5ebd 31f6 90bd 1b53 b3bd fe81 8bbb
00000180: e0bb 203c c53d 14bd b53a 44bd 61ca 923d
00000190: ab1d c6bc 5db0 71bd b496 043d 7cd9 acbd
000001a0: c194 a83d 455c 2cbd 1dbd 59bd 504a 823c
000001b0: 12f7 cfbd 27cc af3d be26 b7bc 105a 613d
000001c0: b2e0 17bd d750 98bd 2e32 a23c 631a 883c
000001d0: 37d0 7bbd c11c febc 1254 85bd ca4f df3b
000001e0: 64dc e43c 6668 a8bd 6c3e 2c3d 8e7e 7e3c
000001f0: 6c66 bd3d 9afc 3f3d 1cf0 8b3c b339 43bd

layers.layer_4.weight f4 [2, 128]
-0.023470592 -0.07448319 -0.2668266 -0.026956381 -0.18524984 0.1625598 -0.48536527 -0.39525104
0.26238945 -0.051157076 -0.494643 0.16657896 0.051827338 -0.24026652 0.28857887 0.17129116
0.21385883 0.0994523 -0.35419482 -0.2860917 -0.3335887 0.09036605 -0.043069273 0.38615894
0.39090285 -0.37394854 0.41422027 -0.06806753 -0.26693133 -0.41305822 -0.26527983 0.13609013
-0.25870004 -0.009314894 -0.25266498 0.063525 0.25777298 0.34859908 0.018166823 -0.48829007
0.14483137 -0.36168262 -0.40727472 0.009690706 -0.04758396 -0.0068526147 0.088565 0.39589086
-0.20527893 0.042347267 0.5844357 0.018573346 -0.29174215 0.0030115778 0.066100694 -0.20001519
0.12681389 0.16038135 0.13650072 -0.050322343 0.10078074 0.201182 -0.3009647 0.11076756
0.29293087 0.13598756 0.35993373 0.28905854 -0.09995413 -0.38683984 -0.38620338 -0.5378312
-0.46060297 -0.02166411 0.18036994 -0.28769448 0.1891014 -0.25124565 -0.2456295 0.03391048
0.3049768 0.41090432 -0.31213716 -0.3240015 -0.100546114 0.18141459 0.2852619 0.05709299
0.22552972 0.35044158 0.15693991 -0.2276103 0.031142011 -0.022126839 0.078892 0.07294999
0.24528438 -0.41866955 0.2799057 -0.27659166 -0.008615872 0.15970069 -0.1527811 -0.11612413
0.14583996 -0.11398395 0.30705565 0.0522811 -0.23490168 -0.0075557195 -0.1612583 -0.30863994
0.2482098 0.34516838 0.09870626 -0.466157 -0.20381711 -0.18292998 -0.15592694 -0.32485506
-0.47702244 -0.35663173 0.10057732 -0.14710888 0.051834036 -0.33860627 -0.29354808 0.21140137
0.21112336 -0.52115244 -0.15506808 0.036636334 -0.030479124 -0.15015218 0.17398217 -0.2911706
-0.36460194 0.3292101 0.47357723 -0.2701464 0.19509262 0.2669511 0.07909913 0.059726752
0.27699673 0.375779 -0.29012004 0.17059878 -0.2552951 -0.06852722 -0.24062864 -0.15546907
-0.3435982 -0.31263414 0.397807 -0.17917852 0.18334489 0.16969286 -0.2549407 0.42985535
-0.35074696 0.28776482 -0.032412577 -0.04865895 -0.4021734 -0.19070213 -0.12344256 -0.0007976541
0.12662345 0.21222037 -0.2426844 -0.03820345 -0.059099793 0.14702268 0.09765461 -0.08712581
-0.2752177 -0.47063577 0.36194238 0.02071213 0.01917989 -0.3377722 -0.3066735 -0.0082955025
0.1454166 -0.11582761 -0.035096947 0.02563706 -0.29651284 0.4647925 0.31835088 0.37476274
0.24934311 -0.2789903 0.37179917 0.23062132 0.2589948 -0.2103563 -0.22780417 0.114656374
0.061239522 0.06317946 0.08665514 -0.21738715 -0.1488086 0.61773986 -0.15625072 -0.10227829
0.03469466 -0.44694564 -0.34744278 0.10732532 -0.39031494 -0.15408584 -0.025369177 -0.19175726
0.19983938 -0.28517982 -0.07791516 -0.5164999 0.0046020984 0.24150085 -0.059453804 0.40377182
0.18842067 -0.09139739 0.06300185 0.47926766 0.023266835 -0.42173415 0.13632542 0.46539965
0.10466468 0.17772768 0.16069934 -0.33354554 -0.1880981 -0.2637636 0.15125844 0.05141179
-0.12391207 -0.27787194 0.21931306 0.32630166 -0.2131268 0.1521628 -0.13034475 0.48517224
-0.106851466 -0.4328461 -0.15549025 0.42512903 0.31269354 -0.29493842 0.21340741 -0.12187286
00000000: 6645 c0bc a58a 98bd 7f9d 88be a1d3 dcbc
00000010: 22b2 3dbe 1476 263e cc81 f8be 585e cabe
00000020: e957 863e 158a 51bd d941 fdbe ad93 2a3e
00000030: e748 543d 6d08 76be 9cc0 933e f366 2f3e
00000040: cffd 5a3e a6ad cb3d 0659 b5be 9c7a 92be
00000050: 23cc aabe d611 b93d 6869 30bd a0b6 c53e
00000060: 6b24 c83e 2f76 bfbe ae14 d43e fd66 8bbd
00000070: 39ab 88be 5e7c d3be c2d2 87be 365b 0b3e
00000080: 5574 84be 7f9d 18bc 4e5d 81be 6519 823d
00000090: d2fa 833e 947b b23e 97d2 943c 2801 fabe
000000a0: ad4e 143e 772e b9be 5086 d0be c4c5 1e3c
000000b0: 66e7 42bd e68b e0bb 9161 b53d 35b2 ca3e
000000c0: a434 52be 5474 2d3d 949d 153f 2127 983c
000000d0: 3a5f 95be e45d 453b cd5f 873d c8d0 4cbe
000000e0: 80db 013e 023b 243e d8c6 0b3e cd1e 4ebd
000000f0: 2266 ce3d a702 4e3e 0c18 9abe 1ada e23d
00000100: 09fb 953e 5340 0b3e 3c49 b83e 7bff 933e
00000110: c0b4 ccbd df0f c6be 73bc c5be 4eaf 09bf
00000120: 27d4 ebbe ee78 b1bc e6b2 383e b14c 93be
00000130: cca3 413e 45a3 80be 4d86 7bbe b7e5 0a3d
00000140: eb25 9c3e 0d62 d23e 71d0 9fbe 86e3 a5be
00000150: 1feb cdbd bfc4 393e d90d 923e 57da 693d
00000160: 43f1 663e 146d b33e dbb4 203e ad12 69be
00000170: 881d ff3c 5843 b5bc 2192 a13d ce66 953d
00000180: d42b 7b3e db5b d6be cd4f 8f3e 6c9d 8dbe
00000190: 9629 0dbc 9488 233e a672 1cbe 7dd2 edbd
000001a0: 1257 153e 6b70 e9bd 6636 9d3e b524 563d
000001b0: 118a 70be f895 f7bb e520 25be 0e06 9ebe
000001c0: b62a 7e3e e9b9 b03e 8226 ca3d 21ac eebe
000001d0: 6fb5 50be ff51 3bbe 50ab 1fbe 6753 a6be
000001e0: 493c f4be 6f98 b6be 7bfb cd3d b6a3 16be
000001f0: ed4f 543d cd5d adbe ef4b 96be 9a79 583e
00000200: b930 583e 3f6a 05bf 2bca 1ebe fb0f 163d
00000210: 5baf f9bc 7ec1 19be 6228 323e 5014 95be
00000220: 1bad babe 3a8e a83e b778 f23e a150 8abe
00000230: 5cc6 473e d1ad 883e bafe a13d 0aa4 743d
00000240: 84d2 8d3e 1b66 c03e 9d8a 94be 72b1 2e3e
00000250: 0ab6 82be 0058 8cbd 5b67 76be 4933 1fbe
00000260: 1aec afbe 9511 a0be 5cad cb3e 937a 37be
00000270: c3be 3b3e f7c3 2d3e 9687 82be 0016 dc3e
00000280: 1b95 b3be e955 933e 0dc3 04bd 9b4e 47bd
00000290: ace9 cdbe 6b47 43be 74cf fcbd a919 51ba
000002a0: 94a9 013e 4c50 593e 4282 78be 397b 1cbd
000002b0: a012 72bd 1d8d 163e 24ff c73d 046f b2bd
000002c0: 56e9 8cbe 2cf7 f0be 8350 b93e 7cac a93c
000002d0: 251f 9d3c 7af0 acbe 4f04 9dbe dce9 07bc
000002e0: 17e8 143e 0737 edbd d1c1 0fbd d004 d23c
000002f0: 88d0 97be 48f9 ed3e e3fe a23e e7e0 bf3e
00000300: cd53 7f3e d1d7 8ebe 765c be3e ff27 6c3e
00000310: f79a 843e a467 57be 7f45 69be f6d0 ea3d
00000320: 4bd6 7a3d 3c64 813d 4078 b13d bd9a 5ebe
00000330: 4861 18be 3324 1e3f 3000 20be 4877 d1bd
00000340: fd1b 0e3d 0fd6 e4be 05e4 b1be 61cd db3d
00000350: 5cd7 c7be aec8 1dbe 05d3 cfbc 045c 44be
00000360: b2a2 4c3e 1703 92be fc91 9fbd 5639 04bf
00000370: 33cd 963b 004c 773e d585 73bd 2ebb ce3e
00000380: 59f1 403e 8e2e bbbd 1d07 813d 9262 f53e
00000390: 179a be3c 8aed d7be e498 0b3e dd48 ee3e
000003a0: 705a d63d 3ffe 353e 5e8e 243e 7bc6 aabe
000003b0: ca9c 40be 060c 87be 7ee3 1a3e 2b95 523d
000003c0: 9dc5 fdbd 3b45 8ebe 9a93 603e 0311 a73e
000003d0: e93d 5abe 91d0 1b3e 1879 05be 7f68 f83e
000003e0: f1d4 dabd 019e ddbe d638 1fbe 83aa d93e
000003f0: 5e19 a03e 2b02 97be 7987 5a3e 7a98 f9bd

layers.layer_4.bias f4 [2]
0.0042082598 -0.008886992
00000000: 71e5 893b bf9a 11bc
